model.pth (torch, 73192 bytes, 8 tensors)

weight f4 [64, 6]
0	0xc0d3d9df	-6.6203456
1	0xc098ef65	-4.779223
2	0xc10206f3	-8.126697
3	0xc0e06e2a	-7.0134478
4	0xc0a42b39	-5.130276
5	0xc0dbb3fe	-6.8657217
6	0xc0e5af4a	-7.1776476
7	0xc0d71ea8	-6.722492
8	0xbed6ce0e	-0.41954082
9	0xc0dc29de	-6.8801107
10	0xc0d63383	-6.693788
11	0xc11bd8bb	-9.740413
12	0xc014122a	-2.3136086
13	0xbfe9cb93	-1.8265251
14	0xc057af11	-3.3700602
15	0xc02e4e65	-2.7235348
16	0xc00b05c4	-2.172227
17	0xc08383a9	-4.109822
18	0xc0edae43	-7.427522
19	0xc141007a	-12.062616
20	0xc0e9e4ac	-7.309164
21	0xc102fe4c	-8.187084
22	0xc14dfee4	-12.874729
23	0xc10fd044	-8.988346
24	0xc131d95f	-11.115569
25	0xc137cfca	-11.48823
26	0x40d02cf2	6.5054865
27	0xc142502b	-12.144572
28	0xc13a265f	-11.634368
29	0xc1c6cf2a	-24.851154
30	0xc0a25dbb	-5.0739417
31	0xc1073664	-8.450779
32	0xc0c29ead	-6.0818696
33	0xc0c99b23	-6.3001876
34	0xc108a06c	-8.5391655
35	0xc0b54045	-5.6640954
36	0xc1218936	-10.095999
37	0xc13de03d	-11.867246
38	0x40d3b6d0	6.616066
39	0xc142536a	-12.145365
40	0xc145c8d9	-12.361535
41	0xc1d03fa5	-26.031076
42	0xc0ec487d	-7.3838487
43	0x3f431a60	0.7621212
44	0xc093734e	-4.6078253
45	0xc106fbcf	-8.436477
46	0x3f02e030	0.5112333
47	0xc0ff1817	-7.9716907
48	0xc0a196ae	-5.0496435
49	0xc0ef5a1e	-7.4797506
50	0xc0c8f836	-6.280299
51	0xc0cbbf83	-6.367128
52	0xc0f75bfe	-7.7299795
53	0xc0bfb043	-5.9902663
54	0xc0e6bce3	-7.2105575
55	0xc136cbbd	-11.424741
56	0xc0d662db	-6.6995673
57	0xc12a3e0b	-10.640147
58	0xc13456ef	-11.271224
59	0xc123dd06	-10.241461
60	0xc0aaffbc	-5.3437176
61	0xc133ad03	-11.229739
62	0xc098d846	-4.7764006
63	0xc11137eb	-9.076152
64	0xc12cc501	-10.798097
65	0xc1023584	-8.138065
66	0xc0db71d2	-6.857644
67	0xc12963b1	-10.586839
68	0xc10084ed	-8.032453
69	0xc10538d8	-8.326378
70	0xc122c4e3	-10.173068
71	0xc0f1563f	-7.541778
72	0xc0933c79	-4.601132
73	0xc113a28b	-9.227183
74	0xc0b1ed2f	-5.560203
75	0xc0cf65b0	-6.481163
76	0xc1188475	-9.532338
77	0xc0ba9421	-5.830582
78	0xc0bfdd39	-5.9957547
79	0xc12a900e	-10.66017
80	0xc0bf932d	-5.986716
81	0xc0ff40db	-7.976667
82	0xc12f087a	-10.939569
83	0xc0d324a6	-6.5982237
84	0xc094cd77	-4.650081
85	0xc1016e2e	-8.089399
86	0xc0a84d2f	-5.259422
87	0xc0b1cbce	-5.5561285
88	0xc1088f18	-8.534935
89	0xc0ae4a60	-5.446579
90	0xc117bad8	-9.483116
91	0xc17d2d2b	-15.823527
92	0xc0de0d96	-6.9391584
93	0xc144428f	-12.26625
94	0xc1843b68	-16.529007
95	0xc1d73ea4	-26.905586
96	0xc0a5e675	-5.184382
97	0xc10a9123	-8.660434
98	0xc0c26f9a	-6.076123
99	0xc0ee4c33	-7.4468017
100	0xc110f4d1	-9.05977
101	0xc0d79446	-6.73685
102	0xc0dc1c3b	-6.878446
103	0xc10dcbf3	-8.862292
104	0xc0f59d3b	-7.675443
105	0xc0f7ba55	-7.7414956
106	0xc1128d90	-9.159561
107	0xc0df7789	-6.9833417
108	0xc10bb731	-8.732224
109	0xc1238df0	-10.222153
110	0xbf85c825	-1.0451704
111	0xc11ac46c	-9.672955
112	0xc120ee41	-10.058167
113	0xc13bed6f	-11.745467
114	0xc11f4b72	-9.955919
115	0xc1785210	-15.520035
116	0xc1148665	-9.282811
117	0xc1348d0a	-11.284433
118	0xc17da247	-15.8521185
119	0xc16174ee	-14.091047
120	0xc1133d3f	-9.202453
121	0xc15868c4	-13.525578
122	0xc100a164	-8.039402
123	0xc13ab9ea	-11.670389
124	0xc15e4a6e	-13.893171
125	0xc1746bfb	-15.276362
126	0xc0cc20a4	-6.3789845
127	0xc1373678	-11.450798
128	0x3f7af8d2	0.9803592
129	0xc0af7930	-5.4835434
130	0xc1300032	-11.000048
131	0xc17088b5	-15.033376
132	0xc0c54094	-6.164133
133	0xc1065523	-8.395785
134	0xc076b631	-3.85487
135	0xc0e9e0c2	-7.3086863
136	0xc1198feb	-9.597636
137	0xc1439182	-12.223024
138	0xc0b2ad81	-5.5836797
139	0xc1294bf5	-10.581044
140	0xc0406817	-3.0063531
141	0xc100da73	-8.053332
142	0xc124c03f	-10.296935
143	0xc0c0ba0f	-6.022712
144	0xc05b043e	-3.422134
145	0xc0fa2ad8	-7.81773
146	0xbf7c83f4	-0.98638844
147	0xc0704d96	-3.7547355
148	0xc0ee2073	-7.441461
149	0xc0683ff1	-3.6289027
150	0xc0d9aec9	-6.802586
151	0xc10213dd	-8.129849
152	0xc0b7b667	-5.741016
153	0xc0e335cd	-7.1003175
154	0xc0f8d89b	-7.776441
155	0xc0f4ffa3	-7.6562057
156	0x406d3847	3.70656
157	0x3e94f873	0.29095802
158	0xc1866dd3	-16.803625
159	0x40bf9c97	5.987865
160	0x3e481bf2	0.1954191
161	0x420f73b4	35.86299
162	0xc0adfed3	-5.4373565
163	0xc1385aaf	-11.52214
164	0xc0a27088	-5.0762367
165	0xc11592a5	-9.348302
166	0xc1374800	-11.455078
167	0xc102e7c3	-8.181582
168	0xc1212068	-10.070412
169	0xc1333044	-11.199284
170	0xc07615f0	-3.845089
171	0xc1156d87	-9.33924
172	0xc133e705	-11.243901
173	0xc17ea281	-15.914674
174	0xc00f181b	-2.2358463
175	0xc0c43ddb	-6.1325507
176	0xc080b3a9	-4.021931
177	0xc0604089	-3.503939
178	0xc0bc5045	-5.8847985
179	0xc061951f	-3.5247266
180	0xc0cb57cc	-6.3544674
181	0xc12c23f1	-10.758775
182	0xc0e44f3c	-7.134672
183	0xc0e94f00	-7.2908936
184	0xc12e83c4	-10.907169
185	0xc0d5f449	-6.68607
186	0xc0e2d4c8	-7.0884743
187	0xc0355787	-2.8334672
188	0xc0cf3830	-6.475609
189	0xc0f866db	-7.7625556
190	0xc029a54b	-2.6507137
191	0xc1059a06	-8.350103
192	0xc0ce0612	-6.438241
193	0xc1503376	-13.012564
194	0xc0cf7fca	-6.4843493
195	0xc0ee05a7	-7.43819
196	0xc1590aac	-13.565105
197	0xc0dc70c6	-6.8887663
198	0xc0cc27c3	-6.3798537
199	0xc12327b1	-10.19719
200	0xc0ef2d21	-7.474259
201	0xc0f3e736	-7.621974
202	0xc1215368	-10.082863
203	0xc0de9a57	-6.9563403
204	0xc0a92e33	-5.2868896
205	0xc0a7781c	-5.233412
206	0xc1ebce61	-29.47577
207	0x3f6fad0f	0.9362344
208	0xc0c02097	-6.0039783
209	0x42175a6d	37.838306
210	0xc0a04e9b	-5.0095954
211	0xc12c951d	-10.786405
212	0xc0b91693	-5.7840056
213	0xc10f791e	-8.96707
214	0xc1346e75	-11.276967
215	0xc0f6eb96	-7.716258
216	0xc0c18b56	-6.048259
217	0xc1597f1d	-13.5935335
218	0xc0c32929	-6.0987744
219	0xc0d82423	-6.754411
220	0xc16171d5	-14.090291
221	0xc0b7b4ab	-5.740804
222	0xc06e2b9e	-3.7214122
223	0xc0a4e4b2	-5.152917
224	0xc150b473	-13.044055
225	0xbef6f492	-0.48233467
226	0xc0abf9ad	-5.374228
227	0x417d4190	15.828506
228	0xc0f8220a	-7.754155
229	0xc10ab907	-8.670173
230	0x3ff593c6	1.9185722
231	0xc1113ac7	-9.07685
232	0xc101538f	-8.0829
233	0xc1301bc1	-11.006776
234	0xc098d2e0	-4.7757416
235	0xc10f7671	-8.966416
236	0xc0ae9afa	-5.456418
237	0xc0cd608e	-6.4180365
238	0xc11c2f16	-9.761496
239	0xc0c9ee46	-6.310336
240	0xc0dc2e43	-6.880647
241	0xc0d74f59	-6.728436
242	0xc0add62b	-5.4323936
243	0xc0e028fb	-7.0050025
244	0xc0d27f07	-6.5780063
245	0xc0e97b45	-7.2962976
246	0xc0c279c3	-6.0773635
247	0xc0fead5c	-7.958662
248	0xc0b8843d	-5.7661424
249	0xc0c58351	-6.17228
250	0xc10d3bc0	-8.827087
251	0xc11abf7d	-9.67175
252	0xc12496c8	-10.286812
253	0xc12201e4	-10.125462
254	0x41878c84	16.943611
255	0xc162cd91	-14.175187

bias f4 [64]
0	0xc0ea97a5	-7.3310113
1	0xc0c6bb9b	-6.210401
2	0xc05b41da	-3.4258943
3	0xc1024b9a	-8.143457
4	0xc13d54fa	-11.833246
5	0xc0c73f76	-6.2264967
6	0xc1409423	-12.036166
7	0xc10cff55	-8.812337
8	0xc0b8e9d0	-5.7785416
9	0xc1297514	-10.591084
10	0xc10af95b	-8.685878
11	0xc101f1bc	-8.121517
12	0xc0c6a450	-6.2075577
13	0xc0dabd9a	-6.8356447
14	0xc0a08e16	-5.0173445
15	0xc13c4ee5	-11.769261
16	0xc0d7f04f	-6.7480845
17	0xc0e48f6a	-7.1425066
18	0xc11cc661	-9.798432
19	0xc130b24d	-11.04353
20	0xc13920f7	-11.570548
21	0xc0d1839a	-6.5473146
22	0xc101f37c	-8.121944
23	0xc0e4d6af	-7.1512065
24	0xc08f098f	-4.469917
25	0xc0d73a62	-6.725877
26	0x4088ceb2	4.2752314
27	0xc117533d	-9.457822
28	0xc127db00	-10.490967
29	0xc0843899	-4.131909
30	0xc0d54d4d	-6.665686
31	0xc1000bd0	-8.002884
32	0xc0e936ad	-7.2879243
33	0xc0e49ce6	-7.1441526
34	0xc0cdec3a	-6.4350863
35	0xc1123369	-9.137551
36	0xc0c54dc4	-6.165743
37	0xbf21507b	-0.6301343
38	0xc11bdf99	-9.742089
39	0xc0b1144b	-5.533727
40	0xc0cfadd5	-6.4899697
41	0xc0dc0988	-6.8761635
42	0xc14f9dc6	-12.976019
43	0x409e0c36	4.9389906
44	0xc0dd9f4f	-6.925697
45	0xc0afcb5e	-5.493575
46	0xc12b1f4e	-10.695143
47	0xc0a44d2b	-5.13442
48	0x40ffa806	7.9892607
49	0xc04da91a	-3.2134461
50	0xc170ca23	-15.04935
51	0xc0d9d490	-6.8071976
52	0xc12a4e96	-10.644186
53	0xc10292a5	-8.160802
54	0xc126809c	-10.406399
55	0xc0d5f7e0	-6.686508
56	0xc0c96f39	-6.294827
57	0xbfe82c03	-1.8138431
58	0xc09d21f3	-4.910394
59	0xc13b1977	-11.693717
60	0xc0ce0c64	-6.4390125
61	0xc0e535bd	-7.16281
62	0xc1492df4	-12.573719
63	0xc0d42cc9	-6.630467

weight f4 [128, 64]
0	0x406923c8	3.642809
1	0x4095703e	4.6699514
2	0x3f924483	1.1427158
3	0x410a7a1c	8.654812
4	0x4168fbdb	14.561488
5	0x41145246	9.270086
6	0x4151730c	13.090588
7	0x40ab2a40	5.3489075
8	0x411f0d9e	9.9408245
9	0x41320d8c	11.128307
10	0x413697b8	11.412041
11	0x40970d5b	4.7203803
12	0x41195893	9.584125
13	0x41526d3e	13.15167
14	0x4113a831	9.228562
15	0x4123f25c	10.24667
16	0x411fa8da	9.978724
17	0x40c695c3	6.2057815
18	0x41362a1f	11.385283
19	0x412de62c	10.868694
20	0x413a28dd	11.634976
21	0x4139a58a	11.602915
22	0x419bf9f9	19.497057
23	0x405ee94d	3.4829895
24	0xc01f8289	-2.4923422
25	0x40903dd2	4.5075464
26	0x3e2a21c5	0.16614445
27	0x413a5a5e	11.647062
28	0x4148b2da	12.543665
29	0x40837333	4.1078124
30	0x4068251c	3.627265
31	0x40e6dab6	7.214198
32	0x4130347a	11.012812
33	0x407e0210	3.968876
34	0x4107c001	8.484376
35	0x413180b7	11.0939245
36	0x414495f6	12.286612
37	0x410c800e	8.781263
38	0x413b1dfb	11.694819
39	0x4113471b	9.20486
40	0x4041cf90	3.0282936
41	0x4126a92b	10.416301
42	0x416e7b3d	14.905087
43	0xc08c89ea	-4.391835
44	0x4020a0f9	2.509825
45	0x406f1be1	3.7360766
46	0x41922cb3	18.271826
47	0x409ac0d9	4.836041
48	0x3fb5161c	1.4147372
49	0x3e03e075	0.12878592
50	0x4159b6e9	13.607156
51	0x40714c71	3.7702906
52	0x413b3a9a	11.701807
53	0x409da799	4.9267087
54	0x411d64cf	9.837111
55	0x405f2fda	3.4872956
56	0x40474252	3.1134229
57	0x410b4e6f	8.706649
58	0x3ee3583e	0.4440326
59	0x4162e4ac	14.180828
60	0x4104a9b5	8.291432
61	0x40951d1d	4.659804
62	0x414da0f0	12.851791
63	0x4118251e	9.509062
64	0x4100fec0	8.062195
65	0x413a6fb9	11.652276
66	0x3f9d94f7	1.2311085
67	0x414ebb8e	12.92079
68	0x41586402	13.524416
69	0x414daf5d	12.855313
70	0x413dc292	11.8600025
71	0x40e8d84d	7.276404
72	0x4158faa2	13.56119
73	0x4134a92c	11.291302
74	0x4126e546	10.430975
75	0x414bbf53	12.73421
76	0x4151d652	13.114824
77	0x40b1d5e3	5.557359
78	0x414b1758	12.693199
79	0x413c6617	11.774924
80	0x41592d79	13.573602
81	0x41465200	12.39502
82	0x41605840	14.021545
83	0x416d4bcd	14.831006
84	0x415731f9	13.4497
85	0x41404f6c	12.01939
86	0x41944914	18.535683
87	0x40d1a6ae	6.5515966
88	0x3f672fe1	0.9030743
89	0x41315766	11.0838375
90	0xc0674e04	-3.6141367
91	0x41370d50	11.44075
92	0x414233d2	12.137651
93	0x408c741b	4.389173
94	0x40fcd72d	7.9012666
95	0x41216c94	10.089008
96	0x40e9506e	7.291068
97	0x410736ea	8.450907
98	0x4133ea0b	11.244639
99	0x4136f980	11.435913
100	0x406074fd	3.5071404
101	0x4147c093	12.484515
102	0x4165ba59	14.357995
103	0x414e69c5	12.900823
104	0x412efde0	10.936981
105	0x414ace0b	12.675303
106	0x41792d48	15.573555
107	0xc08cd648	-4.4011574
108	0x4123cd23	10.237582
109	0x3fda43b5	1.7051913
110	0x4177149b	15.442531
111	0x40b78be9	5.735829
112	0x3f5c52c8	0.86063814
113	0xbf72baee	-0.9481648
114	0x415691be	13.410582
115	0x40acfd33	5.405908
116	0x41669a69	14.412698
117	0x4101f6d8	8.122765
118	0x4144ba4f	12.2954855
119	0x40e9b380	7.3031616
120	0x41040c47	8.252997
121	0x413d8cfe	11.846922
122	0x400650e0	2.0986862
123	0x415f28f1	13.947495
124	0x41203468	10.0127945
125	0x4135256f	11.321639
126	0x415426c2	13.259462
127	0x4151e01e	13.117216
128	0x4084f4e9	4.1548963
129	0x4107cbd7	8.487266
130	0xc09aec3a	-4.8413363
131	0x40a39ea2	5.1131144
132	0x40a16623	5.043718
133	0x409b0def	4.845451
134	0x40ce527f	6.4475703
135	0xbe702728	-0.23452437
136	0x409a9b3c	4.8314495
137	0x4099df99	4.8085446
138	0x3fecd670	1.8502941
139	0x40d15787	6.5419345
140	0x40886b45	4.2630944
141	0x40ef9114	7.4864597
142	0x40a3756f	5.108085
143	0x40de6883	6.950258
144	0x4088cd9e	4.2750998
145	0x408e958a	4.4557543
146	0x4094dd38	4.6520042
147	0x40d4b2e6	6.646838
148	0x407eec82	3.9831853
149	0x403296c3	2.7904518
150	0x40a53f23	5.163957
151	0x40cdc650	6.430458
152	0xbffd5da2	-1.97942
153	0x4107c3ca	8.4853
154	0x401de968	2.467371
155	0x403ea61c	2.9788885
156	0x40d31f8b	6.5976005
157	0xc0bf1dfb	-5.9724097
158	0x40df7b96	6.983836
159	0x3fe71e23	1.8056072
160	0x40473a3e	3.1129298
161	0x40cea6a1	6.4578404
162	0x4059eb06	3.4049697
163	0x400da78f	2.213352
164	0x40cde227	6.4338565
165	0x407880f6	3.8828712
166	0x3fd01093	1.6255058
167	0x409997e5	4.799792
168	0x410d2407	8.821296
169	0x4093a58a	4.6139574
170	0x408ca100	4.3946533
171	0x3f06c23a	0.52640116
172	0x410aa537	8.665336
173	0x40d36fc6	6.607394
174	0x40ab06ca	5.3445787
175	0xc06ad2fc	-3.6691275
176	0xc05cc3f6	-3.4494605
177	0xc096be6b	-4.7107444
178	0x4099c3bf	4.805145
179	0x3d98e10d	0.074648
180	0x3f34799d	0.7049807
181	0x408c924a	4.3928576
182	0x40844178	4.132992
183	0x40fe0266	7.937793
184	0x40a273bc	5.0766277
185	0x409bf6e5	4.8738885
186	0x40c0471b	6.00868
187	0x409f691f	4.981582
188	0x408d7c66	4.4214354
189	0x4113b8b6	9.232595
190	0x409a37f0	4.8193283
191	0x40ba2b76	5.8178053
192	0x400ab807	2.1674821
193	0x40186e71	2.3817408
194	0x40979100	4.73645
195	0x409ebc9c	4.9605236
196	0x4092a95b	4.5831733
197	0x40324ef2	2.7860684
198	0x40b1a446	5.551303
199	0xbf9de190	-1.2334461
200	0x402a9ca4	2.6658106
201	0x4037080b	2.859866
202	0x4037124b	2.8604915
203	0x4022c870	2.5434837
204	0x404a5358	3.161337
205	0x4030769f	2.75724
206	0x402b7923	2.6792686
207	0x40e510c7	7.158298
208	0x402d2346	2.705278
209	0x401f6008	2.4902363
210	0x407257b3	3.7866027
211	0x409869b5	4.7629037
212	0x40b12998	5.5363274
213	0x4033cbf0	2.8093224
214	0x4095e621	4.684342
215	0x402bac6b	2.6823986
216	0x3f6a2128	0.9145684
217	0x402a2dae	2.659038
218	0xc0072997	-2.1119134
219	0x4034c77a	2.824675
220	0x40519056	3.2744346
221	0x409b742b	4.8579307
222	0x4010272e	2.2523913
223	0x3fcddb01	1.608246
224	0x403a8220	2.9141922
225	0x4010d6ec	2.2631178
226	0x40297d2c	2.648265
227	0x4034c743	2.824662
228	0x404bcd97	3.1844232
229	0x404e6f1a	3.225531
230	0x402c0991	2.688084
231	0x4031b362	2.7765737
232	0x401d0295	2.4532826
233	0x4088be66	4.273242
234	0x40887206	4.263919
235	0xc019282b	-2.3930767
236	0x40010910	2.0161781
237	0xbdb2168e	-0.08695708
238	0x409e334f	4.9437633
239	0x3fd2033d	1.6407238
240	0x40219dce	2.5252566
241	0x40a47465	5.1392083
242	0x406830eb	3.6279857
243	0x402755a0	2.6146011
244	0x40a03938	5.0069847
245	0x40396c33	2.897229
246	0x409c6369	4.887135
247	0x400aa836	2.1665168
248	0x40337639	2.8040907
249	0x406df3ad	3.7179978
250	0x3f768ee6	0.96311796
251	0x4095b662	4.6785135
252	0x401350fe	2.3018184
253	0x40274c5b	2.6140354
254	0x4096e9d6	4.7160444
255	0x3fcfa883	1.6223301

bias f4 [128]
0	0xc12cef23	-10.808383
1	0xc1682280	-14.508423
2	0xc0e0cf7e	-7.0253286
3	0xc0bb10f2	-5.8458185
4	0xc11594ad	-9.348798
5	0xc124f209	-10.309091
6	0xc0dd04cb	-6.906835
7	0xc13150e1	-11.082246
8	0xc0a59f58	-5.175701
9	0xc0d7a8fe	-6.739379
10	0xc0c0a09c	-6.0196056
11	0xc17d55ee	-15.833479
12	0xc1318890	-11.09584
13	0xc0f77a48	-7.733677
14	0xc0cd1ca2	-6.409745
15	0xc15b83bd	-13.719663
16	0xc1392f83	-11.5741
17	0xc0a31d09	-5.0972943
18	0xc0e557bc	-7.16696
19	0x410421f1	8.258286
20	0xc0d30d3a	-6.5953646
21	0xc01166ef	-2.2719076
22	0xc13aad6e	-11.667341
23	0xbebdae2e	-0.3704695
24	0xc0de6631	-6.9499745
25	0xc1309581	-11.0365
26	0xc18567cd	-16.675684
27	0x3f78b3e1	0.97149473
28	0xc08338da	-4.10069
29	0xc0d0999d	-6.5187516
30	0xbfcbcea6	-1.5922439
31	0x3f14440a	0.5791632
32	0xc11552d2	-9.33272
33	0xc17c069d	-15.751615
34	0x3fe5beb7	1.7948827
35	0xc144f71e	-12.310331
36	0xc134d0d9	-11.300988
37	0xc1649600	-14.286621
38	0xc14c5b27	-12.772254
39	0xc1478cb9	-12.471856
40	0xc0e37705	-7.1082788
41	0x3f15549b	0.5833222
42	0xc0605973	-3.5054595
43	0xc137b217	-11.480979
44	0x409841db	4.758039
45	0xc145948e	-12.348768
46	0xc101b180	-8.105835
47	0xc00715b7	-2.1107004
48	0xc11c7199	-9.777734
49	0xc105b325	-8.356236
50	0x40e23f2a	7.0702105
51	0xc12c2365	-10.758641
52	0xc10ed3e8	-8.926735
53	0xc14aa6b3	-12.665698
54	0xbfd03d5f	-1.6268729
55	0xc11b7029	-9.714883
56	0xc12aeb52	-10.682451
57	0x4233b8bd	44.93041
58	0xc12da89c	-10.853664
59	0xc0bdfd2c	-5.937155
60	0xc025c749	-2.5902884
61	0xc11a3436	-9.637747
62	0x40da4008	6.8203163
63	0x41159c86	9.350714
64	0xc175eaa5	-15.369786
65	0xc167a323	-14.477328
66	0xc1720d89	-15.1283045
67	0x405935da	3.3939118
68	0xc12e1f14	-10.882587
69	0xc1835601	-16.416994
70	0xc1703123	-15.011996
71	0xc128d6cd	-10.552442
72	0xc12f7224	-10.965366
73	0xc101bb87	-8.108283
74	0xc107ed20	-8.495392
75	0xc113a932	-9.228807
76	0xbdd7bfda	-0.1053464
77	0xc142c490	-12.172989
78	0xc129cab4	-10.611988
79	0xc138e491	-11.555802
80	0xc0e2335d	-7.06877
81	0xc127b0a0	-10.480621
82	0xc111fc84	-9.124149
83	0xc0c419d9	-6.128155
84	0xc05c48ee	-3.4419513
85	0xc116bb4b	-9.420726
86	0x408df34d	4.43595
87	0x402c8fd8	2.6962795
88	0x40e492d1	7.142922
89	0xc0d335bf	-6.600311
90	0xc124bd1b	-10.296168
91	0xc12edbc6	-10.928656
92	0xc140dcb2	-12.053881
93	0xc121bfac	-10.109295
94	0xc16bb1a0	-14.7308655
95	0xc1448b28	-12.283974
96	0xc0cbad56	-6.364909
97	0xc13155bd	-11.083432
98	0xc0bed185	-5.963076
99	0xc0f0ebd1	-7.528786
100	0xc1386f37	-11.527152
101	0xc0f1b3fa	-7.55322
102	0xc148616f	-12.5237875
103	0xc13fb003	-11.980472
104	0xc0ba86f3	-5.8289733
105	0xc100bd0d	-8.046155
106	0xc166b2c3	-14.418643
107	0xc13e63f5	-11.899404
108	0xc1151f98	-9.320213
109	0xc1166b8f	-9.401259
110	0xc19dc7e4	-19.722603
111	0xbee7e4ad	-0.45291653
112	0xc169390b	-14.5764265
113	0xc11c5795	-9.771382
114	0xc0b7cd68	-5.743824
115	0xc1332b74	-11.198109
116	0xc14b473a	-12.704889
117	0xc17d5bd6	-15.834921
118	0xc106d833	-8.427783
119	0x401f65fa	2.4905992
120	0xc154d3bb	-13.301692
121	0xc121a7a5	-10.103429
122	0xc0d86c6a	-6.763234
123	0xc13f3f3f	-11.952941
124	0xc1647fef	-14.281234
125	0xc1300b34	-11.002735
126	0xc124e52f	-10.305953
127	0xc15ae9b4	-13.682056

weight f4 [64, 128]
0	0x40d8bdf1	6.773186
1	0x410aaaed	8.66673
2	0x40820f08	4.064335
3	0x3f0226e8	0.50840616
4	0x403efea8	2.984293
5	0x410dc940	8.861633
6	0x3decd3dd	0.11563847
7	0x407c3333	3.940625
8	0x4042c1e9	3.0430853
9	0xbe679051	-0.22613646
10	0x3e6eec17	0.23332249
11	0x3fa51f0e	1.2900102
12	0x40a83676	5.256648
13	0x40b7a978	5.739437
14	0xbe86f290	-0.26356936
15	0x40adab86	5.427188
16	0x40c31c27	6.0971866
17	0x3f999b1a	1.2000458
18	0x3fdaa498	1.708148
19	0xc06a7e69	-3.6639655
20	0x3ea5168d	0.32243767
21	0xc062ab13	-3.5416915
22	0x40b01c32	5.503442
23	0xbfb7095d	-1.4299732
24	0x4085ef51	4.1854634
25	0x40a96bd5	5.294413
26	0x4108a8c0	8.541199
27	0xc01b8979	-2.4302657
28	0xc0ef7b67	-7.483814
29	0x3d96be70	0.07360542
30	0xbf823ef5	-1.0175463
31	0x3db94b90	0.090476155
32	0x414bbfad	12.734296
33	0x404b434e	3.175983
34	0x40146383	2.3185737
35	0x4044d335	3.075391
36	0x40e06d1b	7.0133185
37	0x3f6ff614	0.9373486
38	0x3f9a1b2b	1.2039541
39	0x3f40d8f0	0.7533102
40	0x3c535d72	0.012900697
41	0xc0826d1b	-4.0758185
42	0x3fa32dbf	1.2748336
43	0x3f4f6340	0.8101082
44	0xc0849a87	-4.143863
45	0x3f83c014	1.0292993
46	0x3fa96286	1.3233192
47	0x40ddd4cc	6.932226
48	0x40a61fd0	5.1913834
49	0x410f2afd	8.947995
50	0xc08f5cd6	-4.4800825
51	0x40daca29	6.8371778
52	0x40650d11	3.5789225
53	0x4030ea47	2.7642992
54	0x404878f3	3.1323822
55	0x408da3e3	4.4262557
56	0x40e5a1e4	7.176012
57	0xc0710dc1	-3.7664645
58	0x409dc72a	4.930562
59	0x3df195e5	0.11796168
60	0x40313780	2.7690125
61	0x40e94f0a	7.2908983
62	0xc0983f17	-4.7577014
63	0xc0fcf66e	-7.9050817
64	0x40b63906	5.694461
65	0x41042b77	8.260612
66	0x40c714ab	6.221273
67	0x3e8bff9c	0.27343452
68	0x40b08c05	5.517092
69	0x4120a903	10.041263
70	0x4105769b	8.341456
71	0x400a1046	2.1572433
72	0x3f6d8370	0.9277868
73	0xbfde133b	-1.7349619
74	0x40d53ff5	6.6640573
75	0x3f48e2c0	0.78470993
76	0x3f8aca78	1.0843039
77	0x408b97e0	4.3622894
78	0x411b6684	9.712528
79	0x404aa9f5	3.1666234
80	0x400b1ca1	2.1736224
81	0x40c93334	6.2875004
82	0x3f51135d	0.8167017
83	0xbe1507e4	-0.14553791
84	0xc004c5d1	-2.0745738
85	0x408ba3af	4.363731
86	0x40bb8aa5	5.8606744
87	0x400ec427	2.2307222
88	0xc044c517	-3.0745294
89	0x408c6971	4.3878713
90	0x408aa39c	4.332472
91	0x4099221d	4.785414
92	0x3f7cea7f	0.9879531
93	0x40b44459	5.633343
94	0x40f1d09c	7.556715
95	0x3efd88cc	0.4951843
96	0x3d58cf7a	0.05293224
97	0x40e92849	7.2861676
98	0x4012c0e6	2.2930236
99	0x3ea65837	0.32489178
100	0x40eb3a73	7.350885
101	0xbf2f2e9c	-0.68430495
102	0x40d54a80	6.665344
103	0x40dede5b	6.964643
104	0x3e11f38d	0.14253063
105	0x411f1709	9.943124
106	0x40feb853	7.9600005
107	0x40a3fc44	5.124544
108	0x3fb32966	1.3997009
109	0x3f02cc03	0.5109255
110	0x410227b6	8.134695
111	0x3f7ec513	0.9951946
112	0x4100a06e	8.039167
113	0x410d4ee4	8.83176
114	0x3ff4f501	1.9137269
115	0x3fd560ea	1.6670201
116	0x3faec1a9	1.365285
117	0x410f93e0	8.973602
118	0x403f1196	2.9854484
119	0xc085e2ee	-4.1839514
120	0x3f4fa79c	0.81115127
121	0x3fa99383	1.3248142
122	0x3d21fdaf	0.039548572
123	0x3f5d9edb	0.8657052
124	0x40fb0270	7.8440475
125	0x40c1fc0b	6.062017
126	0x4115b4b3	9.356616
127	0x3ff6e207	1.9287728
128	0x40a6d54b	5.2135367
129	0x40fb3141	7.8497624
130	0x40b041b3	5.50802
131	0x3ecc69a8	0.3992436
132	0x40dd43dd	6.914534
133	0x40af4db6	5.478236
134	0x4111d1fa	9.113764
135	0x40c40a5d	6.126265
136	0x3fc0b1b1	1.5054227
137	0x3f6cfbc0	0.9257164
138	0x400ee0f9	2.2324812
139	0x3e929e85	0.28636566
140	0x401027b2	2.2524228
141	0x41368c59	11.409265
142	0x3fd53930	1.6658077
143	0x406658c0	3.5991669
144	0x400eb02c	2.2295027
145	0xbdceaab3	-0.10091152
146	0x402c9103	2.6963508
147	0xbf08a345	-0.5337413
148	0x3f816c05	1.011109
149	0xc0cde303	-6.4339614
150	0x4083825e	4.109664
151	0xbf90c944	-1.1311421
152	0x40a1758c	5.045599
153	0x3fa66154	1.2998452
154	0x411680ce	9.406446
155	0xc05fd2da	-3.4972444
156	0x3c548df8	0.012973301
157	0x4018f9fd	2.390258
158	0x40a4a2a6	5.1448545
159	0x3f6c0e04	0.92208886
160	0x40244b52	2.5670972
161	0x400a202b	2.1582134
162	0x3cecd866	0.02891178
163	0x401fae64	2.495019
164	0x409ab5f8	4.834713
165	0x402c0954	2.6880693
166	0x400a8711	2.1644938
167	0x3eb2037b	0.3476828
168	0x3fa9de35	1.3270937
169	0xbf708a0d	-0.9396065
170	0x41079bbd	8.475522
171	0x3ecb40ba	0.3969782
172	0xc0b2bff6	-5.5859327
173	0x3f580238	0.84378386
174	0x4012729b	2.288245
175	0xbd8494e3	-0.064737104
176	0x40f4571e	7.6356344
177	0x40bbbbb6	5.866664
178	0xc05fe4bd	-3.498336
179	0x4102a136	8.164358
180	0x40277e30	2.6170769
181	0x40b1f45e	5.56108
182	0x409e1e5f	4.9412074
183	0x404734d6	3.1125998
184	0x40af3bc9	5.476048
185	0xc0aa4599	-5.320996
186	0x41079b43	8.475406
187	0x3f84701a	1.0346711
188	0x3ff298e3	1.8952907
189	0x40906602	4.512452
190	0xc0fa566f	-7.823051
191	0xc128171b	-10.505641
192	0x404c61e8	3.1934757
193	0x41554635	13.32964
194	0x40125e57	2.287008
195	0xbf04f0f8	-0.5193019
196	0x4088b03c	4.271513
197	0x4159c31c	13.610134
198	0x41607a7b	14.029902
199	0x3fa72858	1.3059187
200	0x3fae7d40	1.3631973
201	0x41276ee1	10.46457
202	0x3eb9f04f	0.36316153
203	0x400c764a	2.1947198
204	0x412d41e6	10.8285885
205	0x403beb28	2.9362278
206	0x409ef9fa	4.9680147
207	0x4056f421	3.3586504
208	0x4091dac1	4.5579534
209	0x4024f922	2.5777059
210	0x416f86dd	14.970426
211	0x403cbedb	2.949149
212	0xc002a060	-2.0410385
213	0x406b61e9	3.677851
214	0x4111a47f	9.10266
215	0x408b2507	4.34827
216	0xc0a3ee8d	-5.12287
217	0x411bc7ec	9.736309
218	0x403de45f	2.9670637
219	0x4038f617	2.8900201
220	0x3f81e9bb	1.0149454
221	0x40f739ca	7.7258043
222	0x413d6429	11.836953
223	0x4007be0d	2.1209748
224	0x3fbadb37	1.4598149
225	0x40462d06	3.096498
226	0x3fe28f2a	1.769994
227	0x4157370b	13.450938
228	0x40a28add	5.079451
229	0x3f9438f9	1.1579887
230	0x3f2ece05	0.6828311
231	0x40a8f749	5.280186
232	0x3fc4df02	1.5380557
233	0x40d9bb5b	6.8041205
234	0x414ccf2f	12.800582
235	0x40da7775	6.827082
236	0x3fd88bfc	1.691772
237	0x4026aef1	2.6044276
238	0x415a8609	13.657723
239	0x3eb68040	0.35644722
240	0x416497be	14.287046
241	0x40aa535c	5.3226757
242	0x3f5826a0	0.8443394
243	0x40e822dd	7.254256
244	0xbd6a8228	-0.057253033
245	0x414767ae	12.462812
246	0x40c05593	6.010446
247	0xbedb281c	-0.4280404
248	0x402685c8	2.6019154
249	0x408ede6d	4.4646516
250	0x3f8abbff	1.0838622
251	0x40aa5e1c	5.323988
252	0x412c4cc6	10.7687435
253	0x40719caf	3.7751882
254	0x40ac5479	5.3853116
255	0x3e1713e7	0.14753686

bias f4 [64]
0	0xc2a5afc5	-82.8433
1	0xc1b69c2f	-22.826262
2	0xc0dbaba0	-6.8647003
3	0xc2897656	-68.731125
4	0xc0ccc52e	-6.39907
5	0xc0bfbb3b	-5.9916053
6	0xc1c3cb76	-24.474346
7	0x40b92635	5.785914
8	0x4191a947	18.207655
9	0xc296d161	-75.40894
10	0xc219ba73	-38.43208
11	0xc09fce72	-4.993951
12	0xc25f5325	-55.831196
13	0xc25ddfa5	-55.468403
14	0xc2029cb7	-32.65304
15	0xc149797b	-12.592158
16	0xc28394ac	-65.790375
17	0xbf914be4	-1.1351285
18	0xc1294858	-10.580162
19	0x413c00d0	11.750198
20	0xc1cad1e8	-25.352493
21	0x427876ad	62.115894
22	0xc1e9c698	-29.22197
23	0x41b12670	22.143768
24	0xc0d2fe04	-6.593508
25	0xc23762ae	-45.846367
26	0xc2c222a3	-97.06765
27	0xc027e2c2	-2.6232152
28	0xc2870dd9	-67.52705
29	0xc26de601	-59.474613
30	0x412ed5c8	10.927193
31	0xc10595e8	-8.349098
32	0x40c07c12	6.0151453
33	0xc29ed7f7	-79.42181
34	0x4149a8b0	12.603683
35	0xbf02a1b0	-0.51027966
36	0xc120a946	-10.0413265
37	0xc1095bbb	-8.584895
38	0xc28d2ca4	-70.58719
39	0xc1a4dcfb	-20.6079
40	0xc1d34505	-26.4087
41	0x40e6cabb	7.2122474
42	0x418791f1	16.94626
43	0xc2741905	-61.024433
44	0x403d8e68	2.9618168
45	0x42b542e9	90.630684
46	0xc1ae5e80	-21.796143
47	0x409b721f	4.857681
48	0x4184d99c	16.606255
49	0x410a7469	8.65342
50	0xc1e59772	-28.698948
51	0xc24e877c	-51.63231
52	0xbdd34c52	-0.10317291
53	0xc0964c93	-4.6968474
54	0xc1bcd901	-23.605959
55	0xc2dec215	-111.37907
56	0xc1dc0007	-27.500013
57	0xc284d1f5	-66.41007
58	0xc1994c78	-19.162338
59	0xc1e056fd	-28.042475
60	0xc1ccdf3d	-25.609003
61	0xc073c787	-3.8090532
62	0x4019fd7b	2.4060962
63	0xc18d1da1	-17.639467

weight f4 [4, 64]
0	0xc0af36ef	-5.4754558
1	0xc01cf648	-2.4525318
2	0x3fe7f0a7	1.8120316
3	0x3ed27f58	0.4111278
4	0x406a5575	3.661466
5	0x404d3c62	3.2068105
6	0x4044bf20	3.0741653
7	0x4086e8bc	4.21591
8	0x403e2f3e	2.9716334
9	0x3f6cf975	0.9256814
10	0xbf28f705	-0.6600192
11	0x404bf535	3.1868412
12	0xc0e1db23	-7.058
13	0xc111cd1c	-9.112576
14	0x3ea71ff8	0.32641578
15	0x4063fb0f	3.5621984
16	0xc0b0aacf	-5.5208507
17	0x3fffd3a9	1.9986469
18	0x40473848	3.1128101
19	0x4076aa2e	3.854137
20	0x4047cf8c	3.1220427
21	0x40946548	4.6373634
22	0xc0bda93a	-5.9269075
23	0x402ff9f7	2.7496316
24	0x406d292e	3.7056384
25	0xbdbf6d92	-0.09347071
26	0xbf31578a	-0.692742
27	0x404eaf27	3.2294405
28	0xbff7e0e4	-1.9365506
29	0xc105decb	-8.366893
30	0x4003d226	2.0597014
31	0x3fc69b63	1.551617
32	0x4083b2c3	4.1155715
33	0xc0d7cbad	-6.743613
34	0x405a75eb	3.4134471
35	0x4085990c	4.1749325
36	0x403637d3	2.8471572
37	0x402feac8	2.748705
38	0xbfa450dc	-1.2837176
39	0xbf7020b6	-0.9379991
40	0x3fe78f8d	1.8090683
41	0x408d9f87	4.4257236
42	0x40648acf	3.5709722
43	0xc0ac4809	-5.3837934
44	0x409a0e22	4.814225
45	0x405ef92b	3.483958
46	0x3f9cfcfd	1.2264706
47	0x4051a5b3	3.2757385
48	0x407e8f15	3.977483
49	0x400fc071	2.2461207
50	0x3fdec2a9	1.7403156
51	0xbfd935dc	-1.6969562
52	0xbeca7149	-0.39539555
53	0x409394f9	4.611935
54	0x402d2e3a	2.7059464
55	0xbfd9bd12	-1.7010825
56	0x3fca1297	1.5786923
57	0xc0003929	-2.0034888
58	0x3fba601f	1.4560584
59	0x3fb8dcf9	1.4442436
60	0xc08bed8d	-4.372748
61	0x3ef314c3	0.47476777
62	0x4005a289	2.0880454
63	0xc09e993e	-4.9562063
64	0xc0791b67	-3.8922975
65	0xc07db00b	-3.9638698
66	0x400afea2	2.1717916
67	0x3f412f5a	0.7546288
68	0x4063abf2	3.5573697
69	0x401d4bc0	2.4577484
70	0x407f49c7	3.988878
71	0x406e7686	3.725984
72	0x3fd132f2	1.6343672
73	0x3f6350f3	0.88795394
74	0xbfcfeca4	-1.6244092
75	0x40247302	2.5695195
76	0xc0ba6f3c	-5.8260784
77	0xc0cba3f8	-6.3637657
78	0xbf205113	-0.6262371
79	0x406eb408	3.7297382
80	0xc08fe45d	-4.4966264
81	0x3ffef987	1.99199
82	0x401c1fa9	2.4394324
83	0x4085ca5c	4.180952
84	0x404fabe1	3.2448657
85	0x4088e3fe	4.277831
86	0xc09a73a4	-4.8266163
87	0x3ff43510	1.9078693
88	0x40280c66	2.6257567
89	0x3ea07cf2	0.31345326
90	0xbf0b2ccc	-0.5436523
91	0x401bd1e3	2.4346855
92	0xbffb78d6	-1.9646251
93	0xc0b39f12	-5.613168
94	0x3fa8dad6	1.3191783
95	0xbf16d900	-0.58924866
96	0x40772e38	3.862196
97	0xc0a3cbe0	-5.118637
98	0x407b0a05	3.9224865
99	0x40409b21	3.0094683
100	0x400301e7	2.046991
101	0x404c8abd	3.195968
102	0xbf3db282	-0.74100506
103	0xc04b327e	-3.1749568
104	0x40124281	2.285309
105	0x3ffa2feb	1.9545873
106	0x402ea41c	2.7287664
107	0xc06f7a2b	-3.7418315
108	0x4065b7d1	3.5893443
109	0x4053d024	3.309579
110	0x3ff5350d	1.9156815
111	0x404aaf25	3.16694
112	0x4050ef39	3.264601
113	0x403b2841	2.924332
114	0x402a2304	2.6583872
115	0xbff3ab5a	-1.9036667
116	0xc0b1873f	-5.5477595
117	0x405dfe59	3.4686491
118	0x402b7e45	2.6795819
119	0xc0536d97	-3.3035638
120	0x3fbe55aa	1.4869893
121	0xbfd86f3a	-1.6908944
122	0x401f7ba4	2.4919214
123	0x402f6ce6	2.7410216
124	0xc05c9969	-3.4468634
125	0xbfc76fea	-1.5581028
126	0x40044343	2.0666053
127	0xc0aba1ce	-5.3635015
128	0xc0c38283	-6.1096816
129	0xc0630658	-3.5472622
130	0x403e7cda	2.9763703
131	0x404657a1	3.0990984
132	0xbeb72a19	-0.35774305
133	0x4027e779	2.623503
134	0x40343791	2.8158915
135	0x40013422	2.018807
136	0x4026eb9c	2.6081305
137	0x4051474d	3.2699769
138	0xbfbcfb1c	-1.4764132
139	0x40243222	2.5655599
140	0xc0db4a1c	-6.8527966
141	0xc0edd7a3	-7.432573
142	0xbf06e32e	-0.526904
143	0x401863cc	2.381091
144	0xc00e667c	-2.2250051
145	0x3eee3059	0.4652126
146	0x403607df	2.8442304
147	0x405720b4	3.361371
148	0x400c5083	2.192414
149	0x40077ed0	2.117115
150	0xc038d6c2	-2.8881078
151	0x3fef19d2	1.8679755
152	0x3ff39cad	1.9032189
153	0xbf3541a4	-0.70803285
154	0x3fec7e7b	1.8476099
155	0x4025c51c	2.5901556
156	0x3fd4221f	1.6572913
157	0xc0f8dd64	-7.777025
158	0x4087744d	4.232947
159	0x3f9e1b9c	1.2352176
160	0x409b88c8	4.860447
161	0xc0de971b	-6.9559455
162	0x40304e64	2.7547846
163	0x402bfcb4	2.6872988
164	0x408002e5	4.0003533
165	0x40042375	2.0646641
166	0x3fb98d97	1.4496335
167	0xc0868846	-4.204135
168	0xbe371d86	-0.17882356
169	0x40896180	4.293152
170	0x4057f267	3.37417
171	0xc0cd6ed5	-6.4197793
172	0x40cd1820	6.409195
173	0x3e6271de	0.2211375
174	0xbe55666d	-0.20839854
175	0x405e1f3c	3.4706564
176	0x405df30b	3.4679592
177	0xbf69fb62	-0.91399205
178	0x3ff74417	1.9317654
179	0x4025cbf8	2.5905743
180	0x3fb0ceed	1.3813149
181	0x404f5699	3.2396605
182	0x40280c77	2.6257608
183	0x3f877b37	1.0584477
184	0x3f8fe1ec	1.1240821
185	0x3feb8fc6	1.8403251
186	0xbf36abfb	-0.7135617
187	0x40299abb	2.650069
188	0xc09ac534	-4.8365726
189	0x401c3928	2.4409885
190	0x3ee2f5d7	0.44328186
191	0xc09382aa	-4.6097
192	0xc01770da	-2.366263
193	0xbf9423a8	-1.1573381
194	0x4051c51d	3.2776558
195	0x4034c89d	2.8247445
196	0xbfa53cbf	-1.2909163
197	0xbec1aaed	-0.3782572
198	0x3fd06615	1.6281153
199	0x3f3b9e3e	0.73288333
200	0x3d861328	0.065466225
201	0xbed10889	-0.40826824
202	0xc0045afa	-2.0680528
203	0x3f412d2a	0.7545954
204	0xc06b0d76	-3.6726966
205	0xc05afe87	-3.421785
206	0x3f07468d	0.52842027
207	0xbf88ab62	-1.0677302
208	0xbfae8d0c	-1.3636794
209	0x3f74587c	0.95447516
210	0x3f3d93db	0.74053735
211	0x3f5eca7a	0.87027705
212	0xbe086a1d	-0.13321729
213	0x3ff0203a	1.8759835
214	0xc0033d74	-2.0506258
215	0x3f57dc56	0.8432058
216	0x3d17ee06	0.03709223
217	0x3edc1a0f	0.4298863
218	0xbfacaf00	-1.3490906
219	0xbf29bc30	-0.66302776
220	0x40916215	4.543223
221	0xc0861c53	-4.1909575
222	0x3f55fb64	0.83586717
223	0xbf8e04ab	-1.1095175
224	0x3de17e71	0.11010445
225	0xc0162668	-2.3460941
226	0xbed8b947	-0.42328855
227	0x3f843d9f	1.0331305
228	0xbfd18f9d	-1.6371952
229	0xbfb53cd8	-1.4159193
230	0x3fd7f135	1.6870486
231	0xc04e0808	-3.2192402
232	0xbe376d3b	-0.17912762
233	0x408604d9	4.1880918
234	0x3fa9cbf2	1.3265364
235	0xc01d5da7	-2.458841
236	0xbf4bcbda	-0.7960793
237	0x40655bf5	3.5837376
238	0x3ffd22f9	1.9776298
239	0x3fc06e6a	1.5033696
240	0x3fa6fc8e	1.3045824
241	0x3ecbddcf	0.39817664
242	0x4016cd83	2.3562934
243	0x406c5b5d	3.6930764
244	0xbbbb4fbc	-0.005716292
245	0x3f8d45b0	1.1036892
246	0x3f05aeca	0.5221983
247	0xc080cc47	-4.024936
248	0xbfa1fa0f	-1.2654437
249	0x4092a1ea	4.582265
250	0x4033ae07	2.8074968
251	0x403cf3d9	2.9523833
252	0xbfca1de1	-1.5790368
253	0x3f4be87f	0.79651636
254	0x3ed1a001	0.40942386
255	0xc0189888	-2.3843098

bias f4 [4]
0	0x434fadfe	207.67966
1	0x436875fd	232.46089
2	0x42dfdecb	111.93514
3	0x42b47e80	90.24707
