src/dqn_best.pth (torch, 89978 bytes, 14 tensors)

bn1.weight f4 [27]
00000000: 8f71 983f 042a 483e 6025 4a3f 1e90 1f3f
00000010: e503 92bb 4493 1040 4670 67be baa4 9d3e
00000020: d60d 3c3c 08d9 a13e 20c6 df3e 468d 9c3f
00000030: c331 363f 2720 bc3e 3311 153f 9160 aa3e
00000040: b884 b33f 3ece 7e3f bc1a a33e 442f b53d
00000050: 2894 263e a4ba 243f cbb5 0d3f 5fd1 6d3f
00000060: f8ae 85bd cda1 ba3f 34f4 863d
1.1909655 0.19547278 0.7896328 0.6232928 -0.0044560307 2.2589884 -0.22601423 0.3078974
0.011477908 0.31610894 0.43705845 1.2230613 0.7116968 0.3674328 0.5822937 0.332768
1.4024878 0.9953345 0.31856334 0.08846906 0.16267455 0.6434729 0.5535552 0.928976
-0.06527513 1.4580628 0.06589547

bn1.bias f4 [27]
00000000: b002 c4bd 363a 453c 470e a6bd a7e9 de3e
00000010: bbc2 c53b 1afd 1b3e f8b0 4c3f f5cc 0fbd
00000020: 2692 acbe 47a5 68be 0e66 aebd d068 193f
00000030: 2d01 633e 8cae bcbc 61c3 e93e 6b5e d43d
00000040: be8f a33e 6bf8 dc3e 4e83 883e f2e0 8e3e
00000050: 96ba 833d 35f1 b33e 48ae b33e 3c22 9f3e
00000060: 3fcb b03e b350 b43e 0709 603e
-0.09570825 0.012037804 -0.08108192 0.43537638 0.0060351766 0.1523327 0.7995753 -0.03510757
-0.33705252 -0.22719298 -0.08515559 0.59925556 0.22168417 -0.02303245 0.45656875 0.10369571
0.31945604 0.43158278 0.26662678 0.27905995 0.06432073 0.35144964 0.35093904 0.31080806
0.34530064 0.3521782 0.21878444

bn1.running_mean f4 [27]
00000000: c942 df48 e9d9 b045 1437 9943 8707 0242
00000010: 5b5a d146 37a1 5146 75b3 653f b015 023f
00000020: 3d26 793f 495a 033f 3cbf a93e 81e8 643f
00000030: 4def d64e ab95 1d4d b6c4 5c4b e666 f84f
00000040: cbaf 2c50 a2ce 3748 7049 9948 9056 584e
00000050: 8f7b 474b 82b0 d545 2050 4e49 7b34 b64a
00000060: 302b b549 c49c 4648 ca44 5f4c
457238.28 5659.239 306.4303 32.50735 26797.178 13416.304 0.89726955 0.5081434
0.9732397 0.5130964 0.33153713 0.8941727 1.8030035e+09 1.6523947e+08 1.4468278e+07 8.334986e+09
1.1588808e+10 188218.53 313931.5 9.073879e+08 1.3073295e+07 6838.0635 845058.0 5.9704935e+06
1.484134e+06 203379.06 5.852855e+07

bn1.running_var f4 [27]
00000000: cb51 2e51 bdc8 144d 34c9 c347 ec16 0c44
00000010: ab78 5d4f 3f81 fb4e 7c9f bc3d 05b0 7f3e
00000020: c925 d53c a4e8 7f3e fdf2 623e b9ce c13d
00000030: 57b7 6d5f bb83 1d5b 6d12 2457 5992 a661
00000040: 7173 bc62 d3b9 5952 6dd4 fc52 b8b9 e85e
00000050: c7c3 be59 0e95 d24c fd1a 8554 62e1 1f58
00000060: e92e 3b55 8a1c ed52 0571 015c
4.6793535e+10 1.5601147e+08 100242.41 560.35815 3.7156728e+09 2.1097757e+09 0.09210107 0.2496949
0.026018994 0.24991089 0.22163005 0.09463257 1.7129255e+19 4.433641e+16 1.8039905e+14 3.8408812e+20
1.7381532e+21 2.3378138e+11 5.4294784e+11 8.3848185e+18 6.711938e+15 1.1040574e+08 4.5734675e+12 7.0316144e+14
1.2863134e+13 5.0919303e+11 1.4573815e+17

fc1.weight f4 [128, 27]
00000000: 8b35 443d ce03 3abc 4dd0 b43c cbff aebe
00000010: ca91 543d fb54 743e 78e7 16be 4bda 6dbe
00000020: 0d5d 583f b93d 2abf 55da a93d 75de 0a3f
00000030: 7207 35bf d1b6 17be 7041 42bf 8625 33bf
00000040: 842f 383e 9c8a c6bf 466c b8be 5f30 ddbc
00000050: 70f7 31c0 2db4 af3e fcef a4bd 6b98 e1bd
00000060: b4ec 58bd fea3 5cbe cedc 3bbf e393 f5be
00000070: 7b4e b2be 4b7b 973e 0392 3e3e aa45 0cbd
00000080: 8a4a 163f eacb 25be 8439 ee3e 88e7 053f
00000090: ad3a b83e b739 ff3b feda 293f d44f a43b
000000a0: f3b6 9fbe ec0f ffbc a9b0 0e3e 93b3 10bf
000000b0: f6bc f0bd 3b0b 553d b256 abbc 6f74 323e
000000c0: 7b14 2ebd a772 8d3e 7096 393d 70e6 1ebd
000000d0: 5e38 fc3c 71c0 6f3e 0046 f53e 76c0 13be
000000e0: 479c abbd c12c 85bd 72c5 87bd 2228 28bf
000000f0: 2fbd 10be a24b 153d d2d5 373d 77ea 2f3e
00000100: c0a4 1cbe 7dda abbd 4759 a3bd 7891 67be
00000110: 5576 50be e4bf 1cbe 3b9d babe 8344 2cbe
00000120: 3ff4 b1be 9154 993e f1ac 653e b3fc 913c
00000130: 83af c63d 37be 98be 4748 1b3e b2b6 b73e
00000140: 905d c6bd 62e8 3dbd bd0b 883d c906 393e
00000150: c14f d2be 096a 303c c95c a03d 9cbd 64be
00000160: 9a87 c5be e613 453e e4ff 26be b680 43be
00000170: b335 6fbe 4829 2abe 5680 953d 2a37 9abf
00000180: 3b43 95be 71e9 f2bc 2d6a 17bf c991 22bf
00000190: edf7 86be 9a1b 57bf 1757 69bf c0ba 733e
000001a0: 5b41 333d a5ae d4be 5d90 e1c0 faf4 92be
000001b0: 9cc2 983d cb9d ce3d 7c7c e83b 6ce6 1ebe
000001c0: a5a8 cbbd cbc2 83bf aa4d 8ebe c455 87bd
000001d0: cbb2 a53e 2f00 8ebb e8a9 543d 4bfe 32be
000001e0: b859 bfbc ff86 8fbd 09ac 61bc 8581 c8bc
000001f0: 2456 7abf 3856 6d3e d0a1 84be a787 9ebe
00000200: d62c 413d d9eb acbe 0af6 afbe 95aa 89bd
00000210: a64f f6be 7ed7 483e 9e49 b2be fd96 5c3e
00000220: c931 1b3d b436 b73e 0cff 953d d343 bfbd
00000230: d493 c6be a77d a3bd df96 c43e dca4 f53e
00000240: 3c35 e8be 7e32 7d3d e276 27be e06e 35bd
00000250: f3a4 72bd efcf 243e 747c 0fbf 71e5 4d3d
00000260: 65f8 183e 6225 2b3d aabe 83bd d1c0 303e
00000270: 4582 5ebe cd27 b9be a1c1 3cbf aee5 2fbe
00000280: 6c67 8fbc f2c8 c5be d159 d1bd 8824 a1bd
00000290: 94aa d13d d654 8dbd fbf9 86bd e968 053d
000002a0: e7a3 ddbd 6c5b 69be 3fab 133e 66c5 33bd
000002b0: a05b 1cbe c2a7 49bd d44d 353d 78d2 12be
000002c0: 689f d9bd ad23 48bd 91a8 f83c 2b35 aebd
000002d0: f671 763d 7d20 f9bd 6eb6 343e 9c66 e4be
000002e0: d44f 673e 9256 913e 3a92 cf3c 600c a2c0
000002f0: a6c2 25bc 0b3d 193e 7841 adbd d6a8 67bd
00000300: 712a 06bd e667 d0bc 56d4 203f e405 c13e
00000310: b742 b03d bf85 5fbe 3b22 af3d 6b4f d0bb
00000320: f634 f63d a849 23be a958 d3bb 473a 7fbe
00000330: 94f5 0e3e 01f2 17be 3662 63bd 3d0e 10be
00000340: f665 303e 1f77 8f3d 2896 633d 3e1b 303d
00000350: 7d82 ae3d 785e 9dbd 83c1 423e b70b 66bd
00000360: 8982 22be 4809 de3d ea6d 64bf b0b7 d93e
00000370: 3948 3d3d fc83 3d3c d580 e8be e925 6ebf
00000380: f9e1 af3e 3074 62bc 0766 2ebe 41fc ecbe
00000390: 1bac 0dbf 6cf1 98be 4152 ce3e fd6d dfbe
000003a0: d9ce 3c3e 3276 573e facb 8ebe f61d 363d
000003b0: b14f 93be 31e2 be3d 1ab4 9ebe e1ce 233e
000003c0: bdcc e5bd 5b50 d0bd cad3 6cbe 9441 1abe
000003d0: 1372 883d 7bd0 01bf af7a a5be 7b9f da3c
000003e0: 0609 d9bd e903 043f ee37 a23e b107 c73d
000003f0: 5d5a 413f bba2 af3e 0dc5 f6be b4b1 a5bf
0.047902625 -0.011353446 0.022071982 -0.3417953 0.051896848 0.23860542 -0.14736736 -0.23227803
0.84516984 -0.6650043 0.08293597 0.5424569 -0.70714486 -0.14815833 -0.758811 -0.6997913
0.17986876 -1.551105 -0.36020106 -0.027000604 -2.7807274 0.3431715 -0.08053586 -0.110153995
-0.052960113 -0.21546933 -0.73383796 -0.4796439 -0.348255 0.29586253 0.18610387 -0.034246124
0.5870749 -0.16191068 0.46528256 0.52306414 0.35982266 0.0077888626 0.6634978 0.005014399
-0.31194267 -0.031135522 0.13934578 -0.5652401 -0.117547914 0.052012663 -0.020915363 0.17427228
-0.0425 0.27626535 0.045309484 -0.03879398 0.030788597 0.23413254 0.47904968 -0.14428887
-0.08379417 -0.06502677 -0.066294566 -0.6568624 -0.14134668 0.036449082 0.04488165 0.17179285
-0.15297222 -0.08391283 -0.07976013 -0.22614086 -0.2035764 -0.15307575 -0.36448082 -0.1682301
-0.34756657 0.29947332 0.22429253 0.017820692 0.09701445 -0.29832622 0.1516429 0.35881573
-0.096858144 -0.046364196 0.06642864 0.18068995 -0.41076472 0.010767468 0.07830197 -0.22337955
-0.38580018 0.19245872 -0.16308552 -0.19092068 -0.23360328 -0.1661731 0.07299869 -1.2048085
-0.29152855 -0.02965233 -0.59146386 -0.635037 -0.26361027 -0.8402649 -0.91148514 0.23801708
0.0437635 -0.41539493 -7.0488725 -0.28702527 0.07458994 0.1008869 0.007094918 -0.15517586
-0.09944276 -1.0293821 -0.27793628 -0.06608155 0.3236297 -0.004333518 0.051919848 -0.17479818
-0.02335821 -0.0700817 -0.0137739265 -0.024475822 -0.9778769 0.23177421 -0.25904703 -0.3096287
0.0471619 -0.33773687 -0.343674 -0.06721989 -0.48107642 0.19613454 -0.3482179 0.21541972
0.037889276 0.35783923 0.07324037 -0.09339108 -0.3878466 -0.07982951 0.38396356 0.4797734
-0.45353115 0.06181573 -0.16353944 -0.04429519 -0.05923934 0.16094945 -0.56049275 0.05026764
0.14938505 0.041783698 -0.06432851 0.17261054 -0.21729381 -0.36163178 -0.73732954 -0.1717746
-0.01750537 -0.38629872 -0.10222209 -0.07868296 0.10237613 -0.06900947 -0.06590649 0.032570753
-0.108222775 -0.22788781 0.14420794 -0.043889426 -0.15269327 -0.049232252 0.044263676 -0.143381
-0.106261075 -0.048862148 0.030353816 -0.08506235 0.060167275 -0.121644 0.17647716 -0.44609535
0.22589046 0.2838636 0.025338281 -5.0640106 -0.010117209 0.14964692 -0.08459753 -0.0565575
-0.03275532 -0.025440168 0.62824 0.37699807 0.08606475 -0.21828364 0.08551451 -0.0063571236
0.1202182 -0.15946066 -0.006449778 -0.24924575 0.13960868 -0.14838411 -0.055513583 -0.14067931
0.17226395 0.070051424 0.055563122 0.04299473 0.085209824 -0.07684034 0.19019131 -0.056163516
-0.15870108 0.10841614 -0.89230216 0.42522955 0.046211455 0.011567112 -0.4541079 -0.93026596
0.3435209 -0.013821647 -0.17031108 -0.46286204 -0.5534074 -0.2987169 0.4029713 -0.43638602
0.18438281 0.21041182 -0.27889997 0.044462167 -0.28771737 0.09320486 -0.30996782 0.15996887
-0.11220691 -0.101715766 -0.23127666 -0.15064079 0.06662383 -0.5070874 -0.32320163 0.026687374
-0.10597424 0.51568466 0.31683296 0.09718264 0.7552851 0.3430384 -0.48197213 -1.2944856

fc1.bias f4 [128]
00000000: 7064 53bd 319b 94be 41e3 143e 4e31 12bf
00000010: 9a86 aabd fecd c1be e1e8 96bd cced 5ebb
00000020: 0e39 5cbf ea7d bebd dc7b 92be 8bc9 52bf
00000030: cf10 7dbd 55d7 13bf 0a81 5ebf 66de 58be
00000040: c696 18bf 9d11 34bf 473b 79bf a1e3 bdbe
00000050: 4861 59be c3e6 adbe 96b5 593f 114b 913d
00000060: d44f c7be 6bc6 88be 86b5 02bd ab5c b7be
00000070: 878c 813e 3765 6dbe 9e26 76be b94e 68be
00000080: 90f9 873e 5d1f 353e e333 78be 2340 1cbf
00000090: 8c40 3ebe 6890 98be 0ee5 b7be 9662 4fbf
000000a0: 69d0 bc39 5c5e 56bf 0b94 55bf ee0b a4bd
000000b0: 6752 df3e 7914 e8bd 0714 12be 4746 c5be
000000c0: e2ca 06bf c8e2 59be 3f2a 733e 9596 76be
000000d0: c211 493e 249e 6dbe 4105 f3be 99a1 dcbe
000000e0: a89c 8ebe a95c 77be c754 1cbf ef91 05bf
000000f0: 0a2f 18be 3220 84bd 59ad 6d3b 5223 adbe
00000100: 2090 14bf 1f03 ebbe 0bf7 48be e738 3abe
00000110: 5282 c9bd 0608 3ebf 75b4 dcbe 74b6 91bf
00000120: 7ea9 363c e571 163e 157c ccbe 8b99 e3bd
00000130: 49df b9be ed08 debe d114 353f 5b52 85be
00000140: 6083 a9be 750e 2ebf 3649 1b3e 7b48 24be
00000150: dcc4 f3be 5c00 823c a36f a7be d3c9 7bbe
00000160: 54db 42be fa48 48bf 3693 d7bb 34ab 3abf
00000170: 4e1b f3bc 7f38 efbe aeeb f0be 0029 88bd
00000180: e4ba cebe edcc c8bd cd17 53be 03b1 cdbe
00000190: f4b0 2fbe bed9 c0be e476 5bbe 1492 0fbf
000001a0: b208 b1be a5e8 99bf bfc8 57bf 6266 aabd
000001b0: 6972 92bd 0482 adbe f119 dabe 6d50 79be
000001c0: e429 f2be 6f87 07bf f62c 19be b03b 37bf
000001d0: f6d8 07bf 2b10 813e 3d99 493d 0957 9abe
000001e0: 32d1 cdbe 06a0 8dbe 9d59 e3be e37b 26bf
000001f0: eabb 89be 6a1f 3bbe d963 3cbf 7878 94bd
-0.051609457 -0.29024652 0.14539815 -0.57106483 -0.083264545 -0.37852472 -0.07368637 -0.003401625
-0.8602456 -0.0930136 -0.28610122 -0.8233878 -0.061783608 -0.57750446 -0.8691565 -0.21178588
-0.5960506 -0.70339376 -0.97356075 -0.3708773 -0.21228516 -0.3396512 0.85042703 0.07094396
-0.38928092 -0.2671388 -0.031911395 -0.35812888 0.25302526 -0.23183142 -0.24038169 -0.2268628
0.2655759 0.17687745 -0.24238543 -0.61035365 -0.1857931 -0.29797673 -0.35916942 -0.81009805
0.00036013432 -0.8373773 -0.8342902 -0.08010088 0.43617555 -0.1133203 -0.14265452 -0.3853018
-0.52653325 -0.21277916 0.23746584 -0.2408088 0.1963568 -0.23204857 -0.47464946 -0.4309204
-0.27853894 -0.24156441 -0.6106686 -0.521758 -0.14861694 -0.06451453 0.0036266653 -0.3381601
-0.5803242 -0.4590082 -0.1962549 -0.18185769 -0.0983931 -0.7423099 -0.43106428 -1.1383805
0.0111488085 0.14691885 -0.39938417 -0.1111327 -0.36303166 -0.43366185 0.7073489 -0.26039395
-0.33108044 -0.6799081 0.15164647 -0.16043274 -0.4761113 0.015869312 -0.3270236 -0.24588709
-0.1902898 -0.78236353 -0.006578828 -0.72917485 -0.029676106 -0.4672279 -0.4705481 -0.06648445
-0.4037696 -0.098047115 -0.20614548 -0.40174112 -0.17157346 -0.37666124 -0.21432072 -0.5608227
-0.34576946 -1.2024122 -0.8429069 -0.08320309 -0.07150728 -0.33888257 -0.42597917 -0.24347086
-0.47297585 -0.5294103 -0.14958557 -0.7157545 -0.5306543 0.25207648 0.049218405 -0.30144528
-0.40198666 -0.2766115 -0.44404307 -0.65032786 -0.2690118 -0.18273702 -0.73589855 -0.0724954

fc2.weight f4 [128, 128]
00000000: de57 853d dc28 d73d 02d7 dfbe 318d e9be
00000010: 6548 7c3f 0f84 083d e9b3 11bf f27a d43e
00000020: 484b f2bd 3ced 51be 0385 9bbd 1a6e 61bb
00000030: 0b48 11be bc6b c93e 3391 33be 0315 5cbd
00000040: 2375 c5be ca59 f6bd 1b44 fd3d 8b45 9fbd
00000050: 9b1b 5f3e 0e03 333e 511a 77be 259a 6e3e
00000060: 1ddb d43e 5f71 543d d355 3dbe aae5 873e
00000070: aa59 5cbe 068d dc3e 7ad3 0bbe 8644 1f3e
00000080: b40d 9dbd 03e0 8d3e 21f1 8c3e ffbf 4bbd
00000090: eebe e3bd c0e1 ad3e 36ab a23e 754f 96be
000000a0: 8116 afbe eb0a fe3d c30e 233e 9030 e93d
000000b0: c20c e23d 0ab7 353f 709e ce3e 4592 59bd
000000c0: 5c87 733d 4258 58be 329f 20bf 359f 143f
000000d0: 388e 99be 9c96 ca3e f8d8 bdbe c209 503f
000000e0: d029 44be 03d1 cf3e a6ba b63e 66a1 9c3e
000000f0: 7154 093f 1b62 92be aec8 c13e 0eee 133e
00000100: b9ab 6dbe a2e0 9b3e 0c04 83be 180e bc3e
00000110: cbb7 8f3e eb8c 1bbe d8f6 223f 348f 403f
00000120: b1fc e63e 0af9 8abe 7af5 223e f382 323f
00000130: e1d8 b03d 08ce a33e c742 10bf b9ac 333e
00000140: b528 143e 7621 69bd dbdd a33e 322e abbe
00000150: b56c b4bc 515c 12be 845d 0d3f ac80 e5be
00000160: 6add 383e 9a0f 323d 079b 013f d5fb b03c
00000170: b767 b23c 2c02 3c3e 6d69 8a3e 8950 cfbd
00000180: 0615 bfbd a17d ea3e 7572 3abd 016d 5cbe
00000190: 02a1 9a3e 9ec2 3fbe 325b 2c3f 0d6c 5a3f
000001a0: 74fb 34be 31d7 2e3e 3076 5a3e e196 843e
000001b0: 5bde 5c3e 2064 55bd 6222 ee3e cef7 f83e
000001c0: 8bca dc3e 22dd c2bd 47d8 a23f 8178 a63e
000001d0: 2cf4 40be 19e3 173e 46c5 a0bb 2ad5 64bf
000001e0: db23 23bd d270 273f 004d 453e ac6c 853c
000001f0: 4a44 a83e 0e2e 5d3f 5ca8 6d3f 0e24 f03c
00000200: 4d9e 89be 50c9 683d 74a1 f7bd 1e0b 0abf
00000210: 2e24 c33e d3c7 0b3d f6dd 82bd b5b2 073f
00000220: 171b f43d bcf8 c13e affa 0cbe da3c 14be
00000230: e7ee cc3e e07c 3dbe df48 08bf 745d 35bf
00000240: c03c 4a3e 9c6e 953d d202 353f f5ba 04bf
00000250: 8dff 883e c958 a23e 6191 bebd 016a 013e
00000260: 44c6 de3d 4e58 383d 1f0d 34be d16d 223e
00000270: 5b37 60be ea25 463e 6671 1d3f 848f 15be
00000280: c3a4 14bf 2b25 043f 609a ae3e 3430 f4be
00000290: de29 b8be b829 b53e d456 913d bb75 fb3b
000002a0: d9d1 ecbe a36f 8ebe 1dd3 1b3e 0d92 903e
000002b0: 6838 bbbe 26ab 4b3d 11dd af3e 6cda 67bd
000002c0: ddaf 02be 4c0d 003d 8ba1 61be 7a14 8e3f
000002d0: 20df 8cbe 6f08 263f 206a c1be 423f 883e
000002e0: db51 35be 23d9 abbe 984f 963e 6ac7 aa3e
000002f0: de22 033f 837f 46bf b04c 2c3e bc16 173f
00000300: 9b81 963d ea4f 233d c64d fbbd e06a 03be
00000310: b6b8 c33e d2ba 2fbe 726e a83d 16f6 063f
00000320: 4120 603e 7460 ba3d c726 dfbe e855 b53e
00000330: 3d86 f83e 77b9 0d3e a87f cdbe de22 8cbe
00000340: b26b cb3e 8ea8 b53e 2c7c febd 054a 3dbe
00000350: d3b3 f53d 1a2d 47bd 6e88 a53e 591f 99bd
00000360: 0699 bb3e 6783 7e3e 1a32 4f3e 0889 a1be
00000370: 1bc7 283d b0a5 e73e e701 c1bd d39b 173e
00000380: 343d 503e 0ec3 e23c 7bba a0bd b077 543f
00000390: e3c5 553e be0e d7bc 4b1c 6a3f ba13 823e
000003a0: 4347 32bd 7189 013e e7ff 303e a3ff 973e
000003b0: d25c e8bc e845 15be b9da cb3e badd 373f
000003c0: 3c6f 703d f047 afbe 8e5e b83e 08e1 303e
000003d0: 57b0 4e3d 6e58 c4bd f39f 083e 4bbf 91bf
000003e0: e23c cf3e 412c 863e 633f 553e b77e 243e
000003f0: 6ce1 253e 5cca 4b3e 7d02 2b3f 7a09 0b3e
0.065109 0.1050584 -0.43718725 -0.45615533 0.98547965 0.033329066 -0.56915146 0.4150005
-0.11830765 -0.20500654 -0.07593729 -0.00343979 -0.14187638 0.39340007 -0.17535858 -0.053730976
-0.3856593 -0.12028845 0.12366506 -0.07776936 0.21787874 0.17481634 -0.24131133 0.23300989
0.4157342 0.05186593 -0.1848977 0.26542407 -0.21518579 0.43076342 -0.1365489 0.15553483
-0.07668629 0.2770997 0.27527717 -0.04974365 -0.11120401 0.33961296 0.3177125 -0.29357496
-0.34196857 0.12404426 0.159236 0.11386216 0.110375896 0.7098242 0.40355253 -0.05311801
0.05945526 -0.21127418 -0.6274291 0.5805543 -0.29991317 0.3956803 -0.37079597 0.8126489
-0.19156575 0.4058915 0.35689276 0.30591887 0.5364447 -0.28590474 0.3784842 0.1444628
-0.23210038 0.3044482 -0.25589025 0.36729503 0.2806991 -0.15190475 0.63657904 0.7521851
0.45114663 -0.27143127 0.15913954 0.6973106 0.08635116 0.31993127 -0.56351894 0.17546357
0.14468654 -0.056916676 0.320052 -0.33433682 -0.022024492 -0.14293028 0.5522082 -0.4482473
0.18053213 0.04347191 0.5062718 0.021604458 0.02177797 0.18360204 0.27033558 -0.10122783
-0.09330182 0.45798972 -0.04551931 -0.21525957 0.30200964 -0.18726584 0.67326653 0.8532112
-0.17674047 0.17074277 0.21334147 0.2589636 0.21569197 -0.05209744 0.46510607 0.4862656
0.43123278 -0.09514834 1.2722253 0.32513812 -0.18843144 0.14832725 -0.0049063293 -0.8938776
-0.039829116 0.65406525 0.19267654 0.01628717 0.328646 0.863984 0.9283502 0.029314067
-0.26878586 0.05683261 -0.120913416 -0.53923213 0.3811354 0.034126114 -0.06389992 0.5300706
0.119192295 0.37885082 -0.13767503 -0.14476338 0.40026018 -0.18504667 -0.5323619 -0.70845723
0.19749737 0.07296488 0.7070743 -0.51847774 0.2675747 0.31708363 -0.093050726 0.12638094
0.1087766 0.04500609 -0.1758313 0.15862204 -0.21896116 0.193504 0.6150116 -0.14605528
-0.58063906 0.51619214 0.34102154 -0.47693026 -0.35969442 0.3538339 0.07096639 0.0076739467
-0.4625385 -0.27819547 0.15217252 0.28236428 -0.36566472 0.049723767 0.34348348 -0.056604788
-0.12762399 0.03126268 -0.2203428 1.1099999 -0.2751398 0.6485662 -0.3777628 0.26610762
-0.17707007 -0.335641 0.293576 0.33355266 0.5122508 -0.7753832 0.16826129 0.59019065
0.07348939 0.039871134 -0.122706935 -0.12833738 0.3822686 -0.1716111 0.08224191 0.5271925
0.21887304 0.09100428 -0.43584272 0.35417104 0.48539916 0.1384028 -0.40136456 -0.27370352
0.39730603 0.3548016 -0.12426028 -0.18485267 0.119971894 -0.048626997 0.3233065 -0.07476682
0.36640185 0.24854814 0.20233956 -0.3154986 0.041205507 0.45243597 -0.09424191 0.14805536
0.20335847 0.0276809 -0.07848068 0.8299513 0.20876269 -0.026252147 0.9144942 0.25405675
-0.04352499 0.12650086 0.17285119 0.29687223 -0.028364573 -0.14577448 0.3981531 0.718227
0.05869983 -0.3423457 0.3600964 0.17273343 0.05046114 -0.09587179 0.13342266 -1.1386503
0.40476137 0.26205638 0.20824961 0.16063963 0.16199273 0.19901413 0.6680067 0.13577834

fc2.bias f4 [128]
00000000: b00a 823e bd07 95be 0377 49be 10fd 3fbe
00000010: 2da4 3b3d beec a8bd 0cd2 f4bd 8973 b6bd
00000020: 8f82 983d f330 1e3e 260c 2fbe 54fe b53e
00000030: 54a5 15be c9a5 613e 3b8d 0cbe fa0b 08be
00000040: 2940 84be 4a51 e2be d8b9 823e 0d2a 363e
00000050: 6b1d 74be 13b0 3abc cf18 c13b ff01 f33d
00000060: 3cae 90be 2d50 3b3e 08f7 a23e e73d 84be
00000070: 3e6c 89be 14d0 04be 5bd4 efbc d692 2b3e
00000080: 2d6c e1bc c30e 8cbe 8239 f5be ab97 a73e
00000090: d58d 9bbe 4309 33be ab66 273d 8f5a 293e
000000a0: 4e5b 26be 2869 ab3d a743 cc3a a58a 52be
000000b0: daae 43be 6887 6bbe d5ea c9bd f4c5 c93e
000000c0: 6b2d 8cbe fde2 1e3e a3e4 9fbe 69f4 4b3e
000000d0: b98f 8b3e 1b72 f0bd 8df5 03be fce1 563e
000000e0: a0cf 8bbe 5509 3d3d 62e1 c13c 7f7f 96bd
000000f0: 038e ad3d bced 6a3e 26c9 b3bc d886 1a3d
00000100: 4d16 d13e aa07 bebd f123 35be f085 ffbe
00000110: 35ec 4cbe 147d 04be 2d69 12be 02f5 583e
00000120: 769d f3bd 2999 0c3d e742 d6be 9bb6 173c
00000130: db41 0dbf 4d77 573e df49 243e a769 a2be
00000140: f3b8 2a3e 9773 82bd 768f ccbd 5287 fdbd
00000150: 4ec1 3ebe d8d5 9abe 4fef f43c d27d ae3e
00000160: 42a6 6b3d b62e 5fbe 4c5a 71bd 8308 613e
00000170: ff7a bcbe d1e4 7abe 0afe f63c 270f 6d3e
00000180: 521b d23d 23f5 813e 1d12 883c 122f 1e3e
00000190: d898 a2be 19c0 b8bc 7afb febc a8bc d93d
000001a0: 861a 1d3e 5e6f aabe a35a ea3e 7883 86bd
000001b0: 5e6e a23b b1fc 41be addb 7bbe 640a 90bd
000001c0: f3b5 26be e16e 623e 7571 7abe 081f e5bd
000001d0: 4b47 e7bc 12ab a2bc 63c3 10bd e09d e8bd
000001e0: 27e5 55bc 8050 873d 1c14 f8be 1457 873e
000001f0: b63b 993d 5f3c 2d3e a237 783e ef03 86bd
0.2539878 -0.29107466 -0.19674306 -0.1874888 0.045810867 -0.0824828 -0.11954126 -0.08908755
0.07446777 0.1544836 -0.17094478 0.355456 -0.14613849 0.22035898 -0.1372575 -0.13285819
-0.258302 -0.44202644 0.25532413 0.17789479 -0.23839347 -0.011394518 0.00589285 0.11865615
-0.2825793 0.18292303 0.31829095 -0.25828478 -0.26840395 -0.1297 -0.029276064 0.16755232
-0.027517403 -0.27355012 -0.47895437 0.327329 -0.30381647 -0.17484002 0.040869396 0.16538452
-0.16245767 0.08369666 0.0015584127 -0.20560701 -0.1910967 -0.23000872 -0.09859244 0.3940884
-0.273784 0.15516277 -0.31229123 0.19917454 0.2725809 -0.11740514 -0.12886639 0.20984644
-0.27306843 0.046151478 0.023667041 -0.07348537 0.08474352 0.22942251 -0.021946501 0.037726253
0.40837327 -0.092788056 -0.17689492 -0.49906874 -0.20011981 -0.12938339 -0.14297934 0.21187213
-0.11895268 0.034325752 -0.41847917 0.009259845 -0.5517861 0.21041603 0.16043805 -0.3172123
0.16672115 -0.06369703 -0.099883005 -0.12379326 -0.18628427 -0.30241275 0.029899267 0.34080368
0.057531603 -0.21795163 -0.058924004 0.21975903 -0.3681259 -0.24501349 0.030150432 0.23150311
0.10259117 0.25382337 0.0166102 0.15447643 -0.31757236 -0.022552537 -0.031125773 0.106316864
0.15342149 -0.3328809 0.45772275 -0.065680444 0.0049570045 -0.1894405 -0.24595518 -0.07033232
-0.16280346 0.2211261 -0.24457343 -0.11187559 -0.028232237 -0.019856963 -0.035342585 -0.11358237
-0.013055122 0.06607151 -0.48452842 0.26433623 0.07482092 0.16917561 0.24239972 -0.06543719

bn2.weight f4 [128]
00000000: a856 2d40 4f97 2940 5a1b 1c40 ab97 1440
00000010: a867 1640 9c51 1140 0340 2340 c71c 4c40
00000020: 74ca 0d40 f673 3740 e692 1340 8016 1540
00000030: 898e af3f d869 1940 2dc4 2840 8c4b de3f
00000040: 9844 4640 67ce 2740 fcc1 2840 d298 4040
00000050: 1e97 d43f 7388 2440 7260 ce3f 9e0a 4840
00000060: e9c9 d03f d2b0 1c40 bd26 1f40 83ba 3540
00000070: 003d 2a40 9f1a 1140 da32 1940 538c 0240
00000080: e3da 1740 3dba 0640 192f 1640 883d 0140
00000090: ff06 2740 c1cf 5d40 650e 1440 38e6 2d40
000000a0: 6109 3540 3e25 f23f f08a 3740 b5c3 5d40
000000b0: d906 0c40 c3cd 0840 8a02 e53f 0d23 4840
000000c0: 5281 2340 8295 1840 454c 4240 99f9 3f40
000000d0: 0b6e c63f c6ba 3040 ecf4 2140 354e 2240
000000e0: 8099 2440 8607 2f40 cd1a 4540 1b58 0340
000000f0: 2446 c83f 050c 3a40 abe6 4c40 8a05 1b40
00000100: 6a30 2d40 9586 2140 2aef 0840 13b1 4640
00000110: 1c27 1540 2f22 2740 ce4b 1a40 86c0 d73f
00000120: 385c 2740 4709 3440 2a05 4340 9e9c 1f40
00000130: a1ed 1a40 20c8 1740 69b5 d43f 7da6 f13f
00000140: e803 1c40 3192 4240 fb6a 3c40 5a6c 1340
00000150: c4e3 2040 b47b 4a40 d861 3a40 b92a 2e40
00000160: 3ecc 3b40 8673 2740 9b7d 1640 0382 2d40
00000170: d3da 1740 84dd e13f abf4 2740 d804 2640
00000180: 5c7b 0940 4dc7 1140 b784 1e40 0a1e f03f
00000190: f7e7 0f40 a334 2140 119e 2740 1a8a 3640
000001a0: 1fc7 3040 6f33 1e40 eea6 3040 1b4c 2e40
000001b0: e20e 2140 38b1 2a40 9449 3340 22fe 4340
000001c0: 8926 3740 0c7f 2740 d64d 2c40 a164 1d40
000001d0: 89d8 3b40 25ad 1a40 9ac3 0f40 8571 0640
000001e0: 8b54 2340 62f9 d73f b166 3d40 2780 ec3f
000001f0: 456f 8e3f 696a 1440 430b 3040 1372 1040
2.708414 2.6498601 2.4391694 2.321757 2.3500767 2.270606 2.550782 3.1892564
2.2154818 2.8664527 2.305841 2.3294983 1.3715373 2.3970852 2.6369736 1.7366805
3.0979366 2.6219728 2.6368399 3.0093274 1.6608617 2.5708282 1.6123183 3.125648
1.6311618 2.4482923 2.4867394 2.8395088 2.6599731 2.2672498 2.3937287 2.0398147
2.3727348 2.105117 2.3466246 2.0193806 2.609802 3.4658053 2.3133786 2.7171764
2.8286974 1.8917615 2.867855 3.46507 2.187918 2.1375587 1.78914 3.1271393
2.554768 2.3841252 3.0359051 2.9996092 1.5502332 2.7613997 2.5305738 2.5360234
2.571869 2.7348342 3.0797608 2.0522525 1.5646405 2.9069836 3.2015789 2.422213
2.70608 2.5238392 2.1395974 3.1045578 2.330512 2.6114614 2.4108768 1.6855628
2.6150036 2.8130662 3.0471902 2.4939342 2.4207537 2.3715897 1.6617862 1.8878933
2.4377384 3.0401728 2.9440296 2.3034883 2.5139017 3.1638002 2.912222 2.7213576
2.934341 2.616426 2.3514163 2.7110603 2.372731 1.7645726 2.6243083 2.5940456
2.1481543 2.2777894 2.4768503 1.8759167 2.248533 2.5188377 2.6190226 2.852179
2.7621534 2.4718893 2.7601886 2.723395 2.5165334 2.6670666 2.8013659 3.062386
2.861727 2.6171293 2.6922507 2.459267 2.9350913 2.416818 2.2463136 2.1006787
2.552035 1.687298 2.9593928 1.8476609 1.1127707 2.3189948 2.7506874 2.2569625

bn2.bias f4 [128]
00000000: f1b6 683f 53c2 fb3e e2b6 7f3f b56b 20bf
00000010: 8e5a 21bf 8833 1bbf 551a 9abf 9535 1cbf
00000020: bb4e 13bf 30f0 653f bb62 cd3e e127 c2bf
00000030: 1333 51bf 165c ccbe 49a5 ff3e b597 8fbf
00000040: e8df a93d 95b7 8e3f 8702 f43e 4636 2b3f
00000050: e10f 99bf dec3 2f3d 3586 49bf 91be a53f
00000060: f10c 93bf f629 ffbd 1394 2d3e bdd4 1d3e
00000070: 0e21 8b3e 3b43 a1bf ea37 b6be 4175 003f
00000080: 5cef 16bf fe4d 0e3f 3807 563f 9d42 01c0
00000090: 9d7b 1a3f b838 30bf 6842 2e3f e0e6 843e
000000a0: 5006 a83f bdc8 1ebf 00e3 5cbe 8f62 5cbf
000000b0: de75 f9bc ca6f 4d3f 0abb a4bf 773a 323f
000000c0: fec2 d53e ba4a 85bf 71e0 a33f 59ee 1fbf
000000d0: 9b2b 12c0 3cec 8e3f d3b7 ad3e 37d6 02bc
000000e0: ba24 9a3e 6008 21bd 4009 a4be ff73 9cbf
000000f0: 3787 d9be a667 8f3f 86c4 463f af38 ef3e
00000100: ed39 9d3f 6ff2 b43f cfbc bcbf 111a 93bf
00000110: 8c42 b4be eee2 0cbf 1ded a4bf 3b11 92bf
00000120: f0d3 6d3f 85af 0abf 53d6 e8be e898 0abf
00000130: 7457 fdbf d751 80bf 7b75 6dbf 7990 07bf
00000140: d364 7b3f d426 07bf 19b8 c83e 859c 963e
00000150: cbff 923f 7518 b2bf d3c7 43bf d503 3ebf
00000160: b3cb a63c 42b8 83bd 7365 53bf d45a 47bf
00000170: 1816 303f 7773 62bf 9956 c53e 4518 bfbf
00000180: 3f03 203e 3d93 5cbf 831f dfbf ce8a a4bf
00000190: e160 8fbf fe67 253f 23da 9fbf a1b4 9e3f
000001a0: 09c1 36be e0f9 0e3f b7b8 123e fb7f 783f
000001b0: 8e0a 0c3f 528d d3be a687 163d eae8 a03f
000001c0: 1448 43bf a84b acbd fe1e af3d fc8b 123f
000001d0: 88bb c9be 1585 743e 3e40 223f acc5 86be
000001e0: 7aac 123f 87ec c4bf 727f ffbe 189c 36bf
000001f0: c935 873e 3441 a43f b343 5f3f c1be ad3d
0.90904146 0.49171695 0.9988843 -0.6266435 -0.630288 -0.60625505 -1.2039286 -0.6101926
-0.5754201 0.8981962 0.40114388 -1.516842 -0.8171856 -0.39914006 0.4993079 -1.1218172
0.0829466 1.1149775 0.47658178 0.6687969 -1.1957971 0.042911403 -0.7872041 1.2948781
-1.1488324 -0.12459175 0.16951017 0.15413184 0.27173656 -1.2598642 -0.35589534 0.50178915
-0.58958983 0.55587757 0.83604765 -2.0196908 0.6034487 -0.68836546 0.6807008 0.25957394
1.3126926 -0.6202505 -0.21570969 -0.8608789 -0.030451711 0.802487 -1.286958 0.6962046
0.4175033 -1.041343 1.2802869 -0.62473065 -2.2839115 1.1165843 0.3392931 -0.007985643
0.30106145 -0.039314628 -0.32038307 -1.2222899 -0.42485973 1.1203506 0.7764362 0.46722934
1.2283303 1.4136485 -1.474512 -1.149233 -0.3520702 -0.5503377 -1.2884861 -1.1411508
0.92901516 -0.5417407 -0.45476016 -0.54139566 -1.9792314 -1.0024976 -0.92757386 -0.5295482
0.9820072 -0.5279362 0.39202955 0.2941629 1.1484312 -1.3913714 -0.7647678 -0.742246
0.020360803 -0.06431629 -0.82576674 -0.7787297 0.6878371 -0.88457435 0.3854263 -1.4929281
0.15626238 -0.8616217 -1.7431492 -1.285486 -1.120144 0.64611804 -1.2488445 1.2398874
-0.17847075 0.5585003 0.14328276 0.9707028 0.54703605 -0.41318756 0.03675046 1.257108
-0.7628186 -0.08412868 0.08550833 0.5724485 -0.39400887 0.23878892 0.63379276 -0.26322687
0.5729443 -1.5384682 -0.4990192 -0.7133193 0.26408222 1.2832398 0.87212676 0.08483649

bn2.running_mean f4 [128]
00000000: b0d8 94bf 1dd0 00c0 06fa 293e 4b6c adbf
00000010: d0a5 bf3f b6ff 5640 bd7e 5740 6e86 a4bf
00000020: 2624 2a40 1c24 83bf b87d dfbf 9a3f a23f
00000030: b83a 573f d68f 06c0 3fce 0c40 625f 833d
00000040: f5e0 06c0 9e1b 78bf 4d07 883e eb56 ddbf
00000050: 64f4 93bc 3a78 40bf 53cf d03e b7fb d2bf
00000060: 2448 8abf 0831 7cbe a667 54bf ba8e a0bf
00000070: 05ed 15c0 5988 a0bf ba8a 92bd 1677 e1be
00000080: e1cc 50bf 78be d2bf c411 8ebf 2cc8 a43d
00000090: 1eb6 e5bf 969e 90bf c112 9abf 7efc 1dbe
000000a0: 537e 59bf c7ae b93f c170 f9bf 4a81 14c0
000000b0: faec dcbf fb56 01bf 1ce0 efbe 469d dfbf
000000c0: 17f8 fdbf 7cef 2d3f 72ad fabf 124c 7abf
000000d0: 6371 213e 42df e6bf fa85 213f 3959 873f
000000e0: b54a 44bf caaf debf 1a02 43bf 605f 6a3f
000000f0: c2b2 853f a7d3 bdbf c437 03c0 915c 9ebf
00000100: bf3f 89bf 53b0 21bf 296d c73e fa1a e4bf
00000110: e082 a0bf fe49 10bf 43a8 213f a13d 0140
00000120: 221c 76bf f788 16bf eeee 48bf 0427 a1be
00000130: 52b6 203f a920 e3bf 4b9b 6cbf 4c10 ddbe
00000140: 6d12 2cbf 9eb6 b43d d035 5bc0 98f6 d53f
00000150: 95cd 80bf 4ae8 74bf 9294 b7bf 1568 23bf
00000160: 8334 c7bf 18c5 b6bf 48aa 22be c4f6 7fbf
00000170: fde5 e5bf 02cc 2dbf 5bad eebf ca4e b5be
00000180: 1e8f 09bf 8647 ab3e 9ba2 d8bf f8f6 2240
00000190: 8740 94be 11a9 d3be ef58 aa3f 572f 2cbf
000001a0: 28db 24c0 b49b 4ec0 d38b 8abc 65bf 36c0
000001b0: 7c86 2ac0 f207 663f d65a e2bf a8df 00c0
000001c0: c6b1 09c0 a946 a3be af91 02c0 956d b6bf
000001d0: cb38 d7bf 70e8 dfbc 9148 82bf 93b5 99bf
000001e0: 3313 a0bf e194 963f 3f08 8ebf d30a f2bf
000001f0: 3206 edbf c44d c33e e7c9 ebbe bd05 c6bf
-1.1628628 -2.0127022 0.16599283 -1.3548673 1.4972477 3.3593574 3.3671105 -1.2853525
2.6584563 -1.0245395 -1.7460241 1.267566 0.8407397 -2.102529 2.2000883 0.06414677
-2.1074803 -0.9691714 0.2656807 -1.729215 -0.01806087 -0.7518345 0.40783176 -1.6483067
-1.0803266 -0.24628079 -0.82970655 -1.2543557 -2.3425915 -1.254161 -0.07155366 -0.44036168
-0.8156262 -1.6464376 -1.1099172 0.08045992 -1.7946203 -1.1298397 -1.2036973 -0.1542835
-0.8495838 1.4506463 -1.9487535 -2.3203912 -1.725982 -0.50523347 -0.4685067 -1.7469871
-1.9841336 0.6794355 -1.9584181 -0.97772324 0.1576591 -1.8036883 0.63095057 1.0574104
-0.76676494 -1.7397397 -0.7617508 0.9155178 1.0445178 -1.4830216 -2.0502787 -1.2371999
-1.0722579 -0.63159674 0.3895047 -1.7820733 -1.253994 -0.56362903 0.6314737 2.0193865
-0.9613668 -0.5880274 -0.7848958 -0.3147508 0.627782 -1.7744342 -0.9242446 -0.43176496
-0.67215616 0.08823894 -3.4251595 1.671588 -1.0062739 -0.95666945 -1.4342215 -0.6383069
-1.55629 -1.4278898 -0.1588527 -0.9998591 -1.7960812 -0.67889416 -1.8646654 -0.35411674
-0.53734004 0.33453006 -1.6924623 2.5463238 -0.2895548 -0.41339925 1.330839 -0.67259735
-2.5758762 -3.2282534 -0.016912377 -2.8554318 -2.6644583 0.89855874 -1.7683971 -2.013651
-2.1514754 -0.31889847 -2.0401418 -1.4252192 -1.6814207 -0.027332515 -1.0178396 -1.2008537
-1.2505859 1.1764184 -1.1096267 -1.8909553 -1.8517516 0.38145268 -0.46052477 -1.5470501

bn2.running_var f4 [128]
00000000: 4df5 913f ec0b 9b40 5b82 9940 adb1 253f
00000010: 195f 6a3f 4987 c33f fab7 b33f 3cac 7f3e
00000020: 2567 283f 68ba 0f40 9152 f940 1415 b23e
00000030: d244 553e 388f 2a3f d609 bf3e 9f59 b83e
00000040: 3fa7 cd3e f29d b33f a8c9 193f dd0c eb3e
00000050: 616e b83e 4abd 7340 cf06 d53e 638c 303f
00000060: 34fe df3e ed5f 953f 38a2 873f 60f8 993e
00000070: 950b c940 a0e4 9f3e e2ca 333f 9baf 4040
00000080: 87aa 023f 1026 953f f642 5a40 f2b4 863e
00000090: 2bc0 ef40 d408 583f 3254 2c41 558d b640
000000a0: 3e73 4240 7f75 a33e 9bf8 c63f 94b5 0c3f
000000b0: e469 463f 829b 1f41 6462 6c3e c4fd 163f
000000c0: a5c8 8040 44a9 a83e 5921 cd3f 72bd 683f
000000d0: 7faf 843e d57c 123f e05d be40 be35 a83e
000000e0: 6a93 1440 ee8c 093f 46c2 913e fc77 b83e
000000f0: 614a 9c3e b0cd 6f40 9dd6 7d3e bdc6 2b40
00000100: 6269 8c40 c29b 6640 262f eb3e b7fb f23e
00000110: 718d 2a3f 61fd d13f b35e 9d3e cdc7 333f
00000120: 8a7f f340 61b0 b23e 9d74 c73e 8f86 543f
00000130: 9af9 783e 704d 803f 46f6 c03e d63a 493f
00000140: 3e0d 9440 11fe 5b3f 5707 853f 2a39 b33f
00000150: 1cd5 0340 7ce9 1d3f 85fc e63e d2d2 6c3e
00000160: 109e 3340 f17c 183f 108e 983e d7fd 913e
00000170: 8dfb 9840 cd75 f03e 1054 0140 8e5e 4b3f
00000180: def8 a63f a1cf 803e bad8 e43e 53a8 173f
00000190: 8b8f c93e a660 3341 1e45 b63e db33 8d40
000001a0: 57c2 903f e37e 6b40 ccd4 fe3e 2c05 c540
000001b0: 2138 4e40 10ef 9e3f 0208 373f dc3d 9e3f
000001c0: d6e3 0f3f 7591 a53f 0748 0540 a089 d640
000001d0: d96c 8e3f 49f8 9a3f fe83 5441 6615 993e
000001e0: 7db1 2541 e520 ea3e 93b2 9f3e bc82 a33e
000001f0: b972 c13e 3ad6 0341 b160 4741 026f 0d40
1.1402985 4.8452053 4.7971625 0.64724237 0.9155136 1.5275661 1.404052 0.24968046
0.65782386 2.2457523 7.791329 0.34781706 0.20827034 0.66624784 0.37312192 0.36005875
0.4016666 1.4032576 0.6007333 0.4590825 0.36021712 3.8084283 0.41606757 0.68964213
0.4374863 1.1669899 1.059638 0.30072308 6.282664 0.31229115 0.7023145 3.010718
0.51041454 1.1652241 3.410337 0.26309925 7.492208 0.8438847 10.7705555 5.7047524
3.0382838 0.3192558 1.5544618 0.54964566 0.77505326 9.975466 0.23084408 0.58980966
4.0244927 0.3294164 1.6025802 0.9091407 0.25915143 0.5722173 5.9489594 0.32853502
2.3214974 0.53730667 0.2846853 0.3602904 0.30525497 3.7469292 0.247889 2.684005
4.387864 3.6032567 0.4593441 0.47457668 0.6662207 1.640545 0.30736312 0.70226747
7.6093187 0.3490019 0.38956156 0.8301782 0.24313965 1.0023632 0.37687892 0.786054
4.6266165 0.8593455 1.0392865 1.400182 2.0598822 0.61684394 0.45114532 0.23127297
2.8065224 0.59565645 0.29795885 0.28513977 4.780707 0.46964875 2.0207558 0.79441154
1.3044698 0.25158408 0.446966 0.5924122 0.39367327 11.211096 0.35599607 4.41258
1.1309308 3.6796196 0.49771726 6.1568813 3.2221758 1.2416706 0.71496594 1.2362628
0.56207025 1.2935015 2.0825212 6.7043 1.1126968 1.2107021 13.282225 0.29899138
10.355832 0.45728222 0.3119093 0.3193568 0.3778284 8.239801 12.461106 2.2099004

fc3.weight f4 [4, 128]
00000000: a302 0140 b73b c13f 0d4f e73f 4697 2ac0
00000010: 518b 0d40 2567 0fc0 9e5a 1bc0 c1a3 e93f
00000020: 25c4 eabf 1663 d03f e1bc c03f d577 e2bf
00000030: ed07 693f 96dd 813f 0062 be3f 073d c4be
00000040: a1a2 47c0 668b ee3f 1b49 f13f 04b2 0440
00000050: 2e39 1bbf 164e e93f 1e45 2ebf 082a 0840
00000060: 6f32 9bbe 6215 f63f 4b8b c93f a5b6 fd3f
00000070: c257 c03f cc98 c7bf 7c47 35c0 4e2e e33f
00000080: 4133 ff3f 3efa 5c3f 66dd ce3f eed5 07c0
00000090: a247 c13f a6fd a8bf 6d69 b33f 48d8 d03f
000000a0: 34ea f43f fa6b e1bf 2a8c c23f b75c 2940
000000b0: 1b2f b43f b650 ce3f dba0 22bf 9acc 1540
000000c0: 1cf8 c43f 9b1e 13c0 ce3b f53f 45a7 1d40
000000d0: 0f00 12c0 280a fe3f 6a14 cc3f db93 78bf
000000e0: 8bc4 c13f 776b 0740 c2f8 2ec0 6fe2 e0bf
000000f0: fd7c cebe 7660 ff3f 2eea 0940 17ab e43f
00000100: 709a d13f 7d4f d83f 619b 75bf faab e0bf
00000110: 9944 0ac0 999b b73f b683 4ac0 64b3 c9bf
00000120: 9a0d f13f ccaf dd3e d4b3 0340 d04c a83f
00000130: 0d66 11c0 23e8 1fc0 ecbc 05c0 03ce 723f
00000140: 3d12 af3f fbc1 1040 0414 863f 8be8 e43f
00000150: 866b 0140 a967 03c0 b23f f33f f35a 19c0
00000160: 475b 913f dac9 d63f f26f a73f 9997 b9be
00000170: cf27 8a3f 25db 92bf 5bd1 c83f 8ba0 17c0
00000180: 7730 9a3f bf6a afbf 6d91 3fc0 c2d9 01bf
00000190: 6a77 f9bf 51d8 c33f 6b53 bdbf b97e f73f
000001a0: 30e6 dc3f d2af a93f 829b 29c0 e8a9 ee3f
000001b0: f82f a23f 187a 0d40 7bfa e33f 8b16 0240
000001c0: 8ee8 ea3f db14 d73f 796b bc3f 4357 ba3f
000001d0: 19fe 2840 1fb3 c83f 5eb5 813f d2b0 f9bf
000001e0: 4d5e b03f c085 8bbf 9044 cb3e 3111 12c0
000001f0: dde7 d9bf c12b f13f b333 e33f 4828 603f
00000200: b2aa c33f 4d40 c23f f120 973f bf52 11c0
00000210: 87e6 0140 ad88 e1bf 1016 ecbf cab7 24c0
00000220: 7408 1b3f 9dcf b63f 7895 8f3f 9dbb aabf
00000230: 757c 92bf fff0 373f a5a2 d43f 7f60 d0bf
00000240: 1a61 cd3e bd47 ab3f f0e2 c43f b6d6 ec3f
00000250: 4cb8 90bf 15f0 793f 5ca1 19c0 7c91 db3f
00000260: e2e1 f1bf c5f9 0240 8900 f43f 3dff 25be
00000270: b124 b43f b10b 56bf e89a aebf 3f75 323f
00000280: 4257 b73f 4e02 c23f 63c5 b63f 9ab7 a53e
00000290: 664a da3f cd98 553e b9ee a43f f03d b23f
000002a0: 0402 ce3f 6673 553f 9163 bb3f 6cf6 0040
000002b0: dc74 d83f f1c5 413f bad6 65bf 294b eb3f
000002c0: a9c8 a33f bfe1 c1bf 4c82 da3f b5ab f43f
000002d0: 1564 7cbf 8391 f03f 4f11 b43f 89d1 c13f
000002e0: 293b a33f f62f 87bf 56e4 153f a353 dcbf
000002f0: 5067 0440 7b31 cf3f 83a6 fa3f a5e3 ab3f
00000300: 8112 bc3f faf7 c03f 39a3 f2bf 23b5 1ec0
00000310: f2b3 1fc0 d438 54c0 6726 03be 90f6 82bf
00000320: 4efd c73f e6e3 0640 74cb a4bf 54c8 c33e
00000330: 4764 87bf 979c dbbf b4e6 c3bf b339 3d3f
00000340: fc68 af3f 8437 753f e38a ca3f 7ae3 173e
00000350: 7cf6 ad3f bbaa cebf a15a 903f 3ea3 bd3f
00000360: c1a9 333f 9769 fb3f 8f89 2640 0c5e 09c0
00000370: 138c 583f 0d17 e7bf ba9a 903f 85af cebf
00000380: 0f56 663f 8048 5e3f d204 093f d510 233f
00000390: 2e45 b5bf a26c c03f 5f3c 33c0 35c6 bd3f
000003a0: ca74 af3f 3088 a53f 76dc 473f 17e1 da3f
000003b0: 325e bf3f 0803 c63f e225 0240 a5cf d83f
000003c0: d505 fb3f f957 33c0 c075 f13f d96e aa3f
000003d0: d049 e13f 3042 6c3f 4a9f 9d3f e67f 6a3e
000003e0: 1fdb ab3f b2e4 c7bf ebe9 fbbf 55f9 eabe
000003f0: 40bc 7bbf 0814 9c3f 89f6 c73f 8909 bf3f
2.015786 1.5096349 1.8070999 -2.665483 2.2116282 -2.2406704 -2.4274058 1.8253099
-1.8341109 1.6280239 1.5057641 -1.769282 0.9102772 1.0145748 1.4873657 -0.3832781
-3.119301 1.8636291 1.8850435 2.0733652 -0.60634124 1.8226955 -0.68074214 2.1275654
-0.30311915 1.9225276 1.5745634 1.9821364 1.5026782 -1.5593505 -2.832488 1.7748506
1.9937516 0.8631934 1.6161315 -2.1224322 1.5099986 -1.3202407 1.4016548 1.6316004
1.9133973 -1.7611077 1.5199025 2.6462839 1.4076875 1.6118381 -0.63526696 2.340613
1.5388217 -2.298743 1.9158876 2.4633343 -2.2812536 1.984685 1.594373 -0.9710061
1.5138105 2.1159341 -2.733933 -1.7569102 -0.40329733 1.9951313 2.1549182 1.7864712
1.6375256 1.6899258 -0.95940214 -1.7552483 -2.1604369 1.434436 -3.164289 -1.5757871
1.8832276 0.43298185 2.0578508 1.3148441 -2.2718537 -2.4985435 -2.0896559 0.948456
1.3677441 2.2618396 1.0474858 1.7883466 2.0221877 -2.053202 1.9003813 -2.396176
1.1355981 1.678035 1.3081038 -0.36248472 1.0793399 -1.1473128 1.568889 -2.3691738
1.204604 -1.3704451 -2.993251 -0.507229 -1.9489567 1.530039 -1.4791082 1.9335548
1.7257748 1.3256781 -2.6501164 1.8645601 1.2670889 2.210577 1.7810816 2.032626
1.835222 1.680324 1.4720298 1.455788 2.640509 1.5679663 1.0133474 -1.9507086
1.3778778 -1.0900192 0.39700747 -2.2822993 -1.7023884 1.8841478 1.7750152 0.87561464
1.5286467 1.5175873 1.1806928 -2.2706754 2.0296953 -1.7619835 -1.8444233 -2.5737176
0.60559773 1.4282109 1.1217489 -1.3338505 -1.1444231 0.71852106 1.6612135 -1.6279448
0.40113145 1.3381268 1.5381756 1.8503025 -1.1306243 0.9763196 -2.4004736 1.7153773
-1.8897059 2.0464947 1.9062663 -0.16210647 1.4073697 -0.8361159 -1.3641024 0.69710153
1.4323504 1.5156953 1.4278988 0.3236664 1.7053955 0.2085907 1.2885352 1.3925152
1.6094365 0.8337921 1.463976 2.0150404 1.6910663 0.7569266 -0.8978077 1.8382312
1.2795612 -1.5147017 1.7071013 1.9114901 -0.98590213 1.8794407 1.4067782 1.514207
1.2752429 -1.0561512 0.5855154 -1.7213024 2.0688057 1.6186975 1.9582065 1.3428847
1.4693147 1.5075676 -1.8956062 -2.4798057 -2.495358 -3.3159685 -0.12807618 -1.0231495
1.5624177 2.1076598 -1.2874589 0.38238776 -1.0577477 -1.7157162 -1.530478 0.7391617
1.3703914 0.95787835 1.5823635 0.14832869 1.3590846 -1.6145853 1.1277658 1.4815443
0.701809 1.9641598 2.602146 -2.1463652 0.84588736 -1.805391 1.1297219 -1.6147314
0.89975065 0.86829376 0.5352298 0.6369756 -1.4161737 1.5033152 -2.8005598 1.4826113
1.3707516 1.2932186 0.7807077 1.7099942 1.4950621 1.5469675 2.0335622 1.6938368
1.9611155 -2.8022444 1.886406 1.3315078 1.7600651 0.92288494 1.2314236 0.22900352
1.3426245 -1.5616667 -1.9680761 -0.4589335 -0.9833412 1.2193613 1.5622112 1.4924785

fc3.bias f4 [4]
00000000: 92fe a43f 096b 9e3f 89a8 c33f a1a9 cf3f
1.2890189 1.2376415 1.5285808 1.6223642
