src/model.pth (torch, 73192 bytes, 8 tensors)

weight f4 [64, 6]
-0.03540028 0.6130525 -3.6350772 4.7776914 0.08532276 11.36603 -0.10951881 0.120154366
12.691181 -6.052331 0.20951608 -16.097052 -0.023487803 -1.1886365 -4.2100453 4.6982555
-0.7930289 14.120882 -0.057430115 -0.02467961 13.1008215 -13.387785 -0.09985545 -18.915226
-0.094531655 -0.2918949 12.670158 -12.757136 0.038700927 -17.892315 -0.0642132 -0.9348996
-3.8184643 8.515668 -0.30512092 19.346859 -0.104018845 0.28026745 -2.3130517 3.3613648
-0.031102454 9.801435 -0.046886176 -0.7497137 -3.948671 5.8640175 -0.76809597 14.450561
-0.17974617 -0.84445757 -3.6924288 1.7270015 -0.6952229 10.606044 -0.0338002 -0.31364086
-3.292881 4.880986 -0.23602772 14.106443 -0.07135821 -0.9461618 -2.8036225 1.8413141
-0.4627053 10.447655 -0.063843235 -0.3117228 -4.151923 6.066926 0.1556087 13.894107
-0.02147206 -1.7165709 -4.4463973 6.75656 -0.3321985 21.339514 -0.04424206 -0.27323154
-3.783372 3.2452633 -0.48317352 11.357923 -0.1623349 -0.19408251 -1.4529271 0.20416874
-0.28636333 8.203098 -0.09198551 -1.0602614 -2.1637416 1.1320142 -1.1615659 9.332616
-0.05897688 -1.5324429 -5.893269 2.6381056 -1.3187187 14.057948 -0.096626595 -0.11493626
12.540857 -14.760517 0.13498478 -22.637905 -0.07928182 -0.3562275 13.691768 -12.490731
-0.034824815 -18.123533 -0.08261369 -0.14105706 13.0758915 -13.286562 0.039187998 -18.687983
-0.16054073 -0.18843779 12.668043 -15.755239 0.057946406 -23.074411 -0.089081384 -0.53060967
12.626545 -8.156223 0.060236316 -17.615582 -0.23293482 0.29363823 11.842973 -12.27155
-0.077364944 -16.585207 -0.12818621 -0.21007942 -2.7552247 2.3385088 0.060247894 10.244734
-0.13091773 0.028908985 -4.4638953 4.1351624 0.009660331 9.203232 -0.13195331 -0.1932589
-1.5790253 1.3288789 0.23135225 6.9284496 -0.038875632 -0.34191158 -4.021047 4.0146327
-0.16488583 11.752221 -0.10784601 -0.8652013 -2.8459425 1.1404454 -0.5065703 10.487641
-0.1429198 -0.07184076 -2.6466732 2.0629892 0.25646937 9.239919 -0.052015416 -0.24705346
12.848184 -9.212428 0.12860152 -17.568344 -0.15212245 -0.0653702 -3.1571236 2.8234162
-0.1111577 11.290788 -0.12418304 -0.49505392 -2.7000248 1.6974127 -0.3549993 9.2668495
-0.11920495 0.24637766 -2.9168506 2.2523637 -0.12919527 9.878892 -0.09976122 -0.11062214
-2.877813 2.9413562 -0.027047805 11.205729 -0.078496106 -0.43307996 12.912774 -12.107191
0.08862492 -20.77011 -0.06645324 -1.0987198 -5.1323237 2.7270927 -0.96963537 15.7131
-0.1037206 -0.78302354 -2.6041293 0.48952872 -0.8091938 10.754028 -0.09966575 -0.26529345
12.459796 -8.726388 0.057430115 -17.052565 -0.102230124 -0.39583936 12.398464 -11.637737
0.08303432 -16.598396 -0.02749742 -0.89776427 -3.2191484 1.5387387 -1.1927538 10.22116
-0.19248095 -0.10693754 -1.300991 -0.6298605 0.0039151115 6.8970513 -0.06850825 -0.10170065
13.05403 -13.214805 -0.11442495 -18.886618 -0.13755238 -0.17048278 -3.4736402 2.6118686
00000000: e2ff 10bd 02f1 1c3f 1ba5 68c0 d9e2 9840
00000010: b3bd ae3d 42db 3541 664b e0bd 7e13 f63d
00000020: 140f 4b41 b2ac c1c0 628b 563e c3c6 80c1
00000030: 7e69 c0bc 3e25 98bf b1b8 86c0 1c58 9640
00000040: f103 4bbf 22ef 6141 d73b 6bbd e52c cabc
00000050: f79c 5141 5e34 56c1 0481 ccbd 6252 97c1
00000060: d099 c1bd 4073 95be f8b8 4a41 3b1d 4cc1
00000070: dd84 1e3d 7623 8fc1 3682 83bd 9555 6fbf
00000080: b861 74c0 2d40 0841 cf38 9cbe 5ec6 9a41
00000090: d507 d5bd 377f 8f3e 0a09 14c0 9a20 5740
000000a0: 93ca febc aed2 1c41 b80b 40bd 3ded 3fbf
000000b0: 07b7 7cc0 08a6 bb40 f0a1 44bf 7f35 6741
000000c0: 610f 38be 5f2e 58bf c150 6cc0 630e dd3f
000000d0: 21fa 31bf 5bb2 2941 1472 0abd 8995 a0be
000000e0: 90be 52c0 0a31 9c40 40b1 71be feb3 6141
000000f0: 4124 92bd a937 72bf 8d6e 33c0 2eb0 eb3f
00000100: b6e7 ecbe 9829 2741 3ec0 82bd 219a 9fbe
00000110: 8edc 84c0 4224 c240 e357 1f3e 434e 5e41
00000120: 2ce6 afbc 98b8 dbbf e348 8ec0 bd35 d840
00000130: ec15 aabe 53b7 aa41 2a37 35bd 01e5 8bbe
00000140: c422 72c0 65b2 4f40 8562 f7be 0dba 3541
00000150: 1f3b 26be 91bd 46be 84f9 b9bf 9c11 513e
00000160: 379e 92be e43f 0341 e662 bcbd a5b6 87bf
00000170: be7a 0ac0 d7e5 903f 31ae 94bf 6552 1541
00000180: be91 71bd 1727 c4bf a995 bcc0 b9d6 2840
00000190: c6cb a8bf 5bed 6041 2ae4 c5bd b463 ebbd
000001a0: 5aa7 4841 142b 6cc1 7339 0a3e 6e1a b5c1
000001b0: 825e a2bd 7363 b6be 7b11 5b41 09da 47c1
000001c0: 77a4 0ebd fffc 90c1 5e31 a9bd 4371 10be
000001d0: da36 5141 c295 54c1 9883 203d fd80 95c1
000001e0: ca64 24be d6f5 40be 4eb0 4a41 7515 7cc1
000001f0: 3659 6d3d 6598 b8c1 4d70 b6bd 09d6 07bf
00000200: 5406 4a41 e47f 02c1 5bba 763d b6ec 8cc1
00000210: 7786 6ebe c057 963e d17c 3d41 4558 44c1
00000220: 8371 9ebd 81ae 84c1 3f43 03be 0f1f 57be
00000230: 9a55 30c0 21aa 1540 7fc6 763d 6eea 2341
00000240: 4c0f 06be 89d2 ec3c 3bd8 8ec0 4053 8440
00000250: 5d46 1e3c 7040 1341 c51e 07be a9e5 45be
00000260: 801d cabf b418 aa3f 9be7 6c3e dcb5 dd40
00000270: 0e3c 1fbd 090f afbe 6bac 80c0 df77 8040
00000280: d5d7 28be 1909 3c41 5ede dcbd d57d 5dbf
00000290: ec23 36c0 1dfa 913f 97ae 01bf 61cd 2741
000002a0: 9159 12be 4021 93bd 1863 29c0 0408 0440
000002b0: f44f 833e b5d6 1341 1e0e 55bd 95fb 7cbe
000002c0: 2992 4d41 1b66 13c1 1eb0 033e f88b 8cc1
000002d0: fdc5 1bbe d0e0 85bd 500e 4ac0 dab2 3440
000002e0: a6a6 e3bd 11a7 3441 ad53 febd b577 fdbe
000002f0: 35cd 2cc0 d244 d93f 78c2 b5be 0445 1441
00000300: ba21 f4bd 6d4a 7c3e aead 3ac0 ba26 1040
00000310: c44b 04be f10f 1e41 9c4f ccbd dc8d e2bd
00000320: 172e 38c0 2e3f 3c40 5c93 ddbc aa4a 3341
00000330: 91c2 a0bd a8bc ddbe b99a 4e41 0eb7 41c1
00000340: fb80 b53d 2f29 a6c1 a318 88bd daa2 8cbf
00000350: ff3b a4c0 b088 2e40 063a 78bf dc68 7b41
00000360: 776b d4bd 3b74 48bf 0eaa 26c0 82a3 fa3e
00000370: 5327 4fbf 8010 2c41 8f1d ccbd 8bd4 87be
00000380: 535b 4741 499f 0bc1 d73b 6b3d a76b 88c1
00000390: 075e d1bd 75ab cabe 1c60 4641 2c34 3ac1
000003a0: e60d aa3d 84c9 84c1 4542 e1bc e1d3 65bf
000003b0: 8706 4ec0 64f5 c43f 28ac 98bf df89 2341
000003c0: ba19 45be 1202 dbbd e086 a6bf 8a3e 21bf
000003d0: 564a 803b a5b4 dc40 0e4e 8cbd 6e48 d0bd
000003e0: 4fdd 5041 d76f 53c1 a157 eabd cb17 97c1
000003f0: 88da 0cbe 0a93 2ebe 1f50 5ec0 db28 2740

bias f4 [64]
5.5130177 -4.9470935 4.7719946 -12.712886 -11.3531 9.698658 4.3851247 6.103443
3.1212378 6.336949 3.8434074 7.234839 7.555458 4.4347806 2.1460214 3.5237854
3.3432488 -14.254229 -11.246196 -12.108515 -14.821143 -5.676154 -12.242805 3.7538383
4.229719 3.3430777 4.481645 3.4648902 4.1876698 -6.5961633 4.524764 2.5706718
3.071768 4.5030336 -12.918641 3.5540922 4.150057 -6.689627 -11.047873 3.2342901
2.470365 -12.731576 3.7382946 4.289061 2.2918565 4.118171 -11.884503 2.9446576
2.777122 3.181003 3.7952266 -4.7156982 -9.104593 4.909966 -12.0642 3.228772
-3.9061463 -5.373957 -6.3453264 -11.104394 -6.679331 3.819774 -12.507715 3.380674
00000000: a46a b040 974e 9ec0 2eb4 9840 fb67 4bc1
00000010: 4ca6 35c1 b42d 1b41 f152 8c40 684f c340
00000020: 5cc2 4740 49c8 ca40 63fa 7540 cd83 e740
00000030: 50c6 f140 b9e9 8d40 6a58 0940 b385 6140
00000040: caf7 5540 5211 64c1 6bf0 33c1 7abc 41c1
00000050: 6723 6dc1 0ea3 b5c0 87e2 43c1 e33e 7040
00000060: dc59 8740 fcf4 5540 a369 8f40 c3c0 5d40
00000070: 6401 8640 c513 d3c0 deca 9040 e385 2440
00000080: d997 4440 da18 9040 c1b2 4ec1 3f76 6340
00000090: 44cd 8440 6d11 d6c0 16c4 30c1 9cfe 4e40
000000a0: 761a 1e40 89b4 4bc1 3840 6f40 fd3f 8940
000000b0: c7ad 1240 0fc8 8340 ed26 3ec1 4575 3c40
000000c0: 5ebc 3140 8e95 4b40 fee4 7240 00e7 96c0
000000d0: 6aac 11c1 711e 9d40 f706 41c1 33a4 4e40
000000e0: 4dfe 79c0 75f7 abc0 ea0c cbc0 99ab 31c1
000000f0: 14bd d5c0 2d77 7440 9a1f 48c1 f65c 5840

weight f4 [128, 64]
0.03126323 -0.008341068 0.060659036 -0.4624546 -0.22320908 0.13054268 -0.034075424 0.16864252
-0.063282125 0.1736595 -0.07711158 -0.06735114 0.24731025 0.074181914 -0.09452051 -0.23614535
0.029826019 -0.25075167 -0.41142598 -0.45772225 -0.13670777 -0.42805043 0.07872104 -0.08303962
0.23240523 -0.15391552 -0.058573823 0.0013695799 -0.14436279 -1.0431995 -0.11176422 -0.09424185
-0.092193894 -0.12151875 -0.48369524 0.10994494 -0.18294378 -0.74590355 -0.27181855 -0.02225494
-0.034994338 -0.36549696 0.08754809 0.08573071 -0.045147896 -0.017195728 -0.14116983 -0.09322714
0.040140152 0.00026691117 -0.20844579 -0.5213303 -0.7307395 -0.15915981 -0.23122735 -0.023812838
-0.28944954 -0.6213461 -0.62367415 -0.07582235 -0.7405599 -0.06502279 -0.16817841 -0.094583586
0.17382719 -0.08679007 0.0625058 -0.111043684 0.42615366 -0.18619633 0.07711205 0.5075179
0.13613904 0.18762664 0.1170348 0.22027598 0.6120769 -0.021539561 0.12389773 0.26606402
0.39738318 0.35514262 0.21520534 -0.00803836 0.44776425 -0.26026988 0.47239324 0.057562515
0.10885645 0.11291305 -0.14328864 0.47660315 -0.10081738 -0.4220223 0.101537906 0.18049349
0.14024124 0.08751986 0.28045544 0.43131638 0.55435646 -0.29569864 0.29822367 0.19742313
0.021449028 0.42666477 -0.0036816103 0.05266511 0.1441365 -0.03744678 0.17564085 0.58711505
0.22457936 0.20918892 0.7713519 -0.14947595 -0.42971236 -0.20322727 0.101787105 -0.04910116
-0.047945205 -0.41826463 -0.39857903 0.11013078 -0.5910552 0.12495874 0.4456991 -0.16691582
-0.016197154 -0.09898634 0.026436236 -0.64121026 -0.32139757 0.07196253 -0.107887916 0.45455912
0.057362273 0.099186145 -0.13875578 -0.029720258 0.37899548 0.16760635 0.005687573 0.18389717
0.05190189 -0.3819523 -0.37584952 -0.48543742 -0.53119653 -0.4515205 -0.1471732 -0.08988471
-0.18938583 0.017376048 -0.066387326 -0.029461019 -0.04316822 -0.4174456 -0.121168345 -0.03790479
0.0036207258 0.074824154 -0.42867246 0.018257864 0.036822435 -0.26360828 -0.33688706 0.113406956
-0.029771002 -0.6414226 -0.14083984 0.083927296 -0.04559488 0.004979035 -0.35228208 0.0020172482
0.029006124 -0.15313089 0.008213456 -0.35085464 -0.4500843 -0.16812786 -0.45515776 -0.113455296
-0.27299696 -0.24842629 -0.3534349 -0.15153295 -0.6099335 -0.17041238 -0.64097184 0.0137975
0.02456756 -0.35821065 0.18195 -0.24981833 -0.4324432 0.11613999 -0.15113205 0.4193859
-0.06594172 0.0078893 0.04289572 -0.027671134 0.37041244 0.03568714 -0.09221136 0.08179883
0.16020387 -0.2943853 -0.37742978 -0.12173263 -0.5581619 -0.20294249 -0.2795292 -0.07059056
-0.11260853 -0.11570037 0.035988137 -0.12111277 -0.08247415 -0.37628365 -0.11227581 -0.04531776
-0.0010564448 -0.08498712 -0.5144661 0.15583813 -0.0505187 -0.3156859 -0.37750718 0.046642907
0.015788615 -0.46674734 -0.19579466 0.03345751 -0.15825818 0.057797596 -0.3603093 -0.031225467
-0.03572791 -0.17765619 -0.10858508 0.0995995 -0.33318293 -0.0035122067 -0.23861621 -0.065468
0.0062594917 -0.31333265 -0.4390377 0.012431364 -0.3357266 -0.22341989 -0.44402257 -0.09212737
00000000: df0d 003d faa8 08bc 9c75 783d d9c6 ecbe
00000010: ec90 64be fbac 053e ac92 0bbd a0b0 2c3e
00000020: 0f9a 81bd ccd3 313e adec 9dbd 65ef 89bd
00000030: e63e 7d3e b0ec 973d f893 c1bd 16d0 71be
00000040: b255 f43c 8662 80be 6da6 d2be 925a eabe
00000050: 1ffd 0bbe 6d29 dbbe 7f38 a13d ad10 aabd
00000060: a3fb 6d3e 089c 1dbe 1beb 6fbd 7a83 b33a
00000070: d7d3 13be 9087 85bf a4e4 e4bd df01 c1bd
00000080: 27d0 bcbd d3de f8bd e7a6 f7be d02a e13d
00000090: 9d55 3bbe 89f3 3ebf cd2b 8bbe fe4f b6bc
000000a0: 3956 0fbd 6b22 bbbe 6a4c b33d 9593 af3d
000000b0: 00ed 38bd 0ede 8cbc d38e 10be dfed bebd
000000c0: 006a 243d 36f0 8b39 d072 55be e775 05bf
000000d0: be11 3bbf cafa 22be ddc6 6cbe 2413 c3bc
000000e0: bb32 94be 8a10 1fbf 1ca9 1fbf c048 9bbd
000000f0: 5595 3dbf ab2a 85bd f636 2cbe 0ab5 c1bd
00000100: c1ff 313e febe b1bd 0a03 803d df6a e3bd
00000110: d030 da3e 40aa 3ebe ecec 9d3d b1ec 013f
00000120: 0868 0b3e 3321 403e f1af ef3d 0790 613e
00000130: 12b1 1c3f bc73 b0bc 18be fd3d 8b39 883e
00000140: cf75 cb3e 41d5 b53e ca5e 5c3e 53b3 03bc
00000150: 5b41 e53e 1842 85be 87dd f13e acc6 6b3d
00000160: 21f0 de3d f53e e73d 42ba 12be 5405 f43e
00000170: 5879 cebd 4f13 d8be 1bf3 cf3d 49d3 383e
00000180: 669b 0f3e 9d3d b33d db97 8f3e 80d5 dc3e
00000190: 4eea 0d3f d065 97be c6b0 983e 4a29 4a3e
000001a0: dfb5 af3c ce73 da3e 2c47 71bb 5fb7 573d
000001b0: 8598 133e cb61 19bd 32db 333e 2c4d 163f
000001c0: 22f8 653e 9f35 563e 5177 453f 3910 19be
000001d0: 4203 dcbe cf1a 50be c275 d03d 4c1e 49bd
000001e0: 3162 44bd c826 d6be 8d12 ccbe 3f8c e13d
000001f0: 654f 17bf 5eea ff3d ac32 e43e fbeb 2abe
00000200: e5af 84bc 5ab9 cabd ce90 d83c 5b26 24bf
00000210: 398e a4be 1761 933d 57f4 dcbd f9bb e83e
00000220: b4f4 6a3d 1b22 cb3d ff15 0ebe e677 f3bc
00000230: b20b c23e 00a1 2b3e d25e ba3b 8a4f 3c3e
00000240: 1497 543d 408f c3be 596f c0be 418b f8be
00000250: 7ffc 07bf b22d e7be 92b4 16be 7a15 b8bd
00000260: 5cee 41be 3758 8e3c 14f6 87bd 3c58 f1bc
00000270: 29d1 30bd 6ebb d5be 1c27 f8bd 0e42 1bbd
00000280: b349 6d3b 683d 993d f57a dbbe 8491 953c
00000290: 1fd3 163d aaf7 86be 767c acbe e841 e83d
000002a0: 51e2 f3bc 4634 24bf 5238 10be 13e2 ab3d
000002b0: b2c1 3abd 2c27 a33b 515e b4be cf33 043b
000002c0: 409e ed3c 58ce 1cbe bb91 063c 38a3 b3be
000002d0: 7371 e6be b629 2cbe 700a e9be 405b e8bd
000002e0: 42c6 8bbe 7663 7ebe 6bf5 b4be 742b 1bbe
000002f0: 9a24 1cbf 9580 2ebe bb16 24bf e90e 623c
00000300: e841 c93c 6367 b7be 1a51 3a3e 60d0 7fbe
00000310: 3269 ddbe ceda ed3d 5cc2 1abe c0b9 d63e
00000320: 740c 87bd 1f42 013c 6cb3 2f3d 93ae e2bc
00000330: b3a6 bd3e ae2c 123d 4fd9 bcbd 2586 a73d
00000340: 7c0c 243e acb9 96be 7a3e c1be f54e f9bd
00000350: b3e3 0ebf 28d0 4fbe 741e 8fbe c991 90bd
00000360: 4d9f e6bd 51f4 ecbd 4c68 133d f909 f8bd
00000370: 35e8 a8bd 40a8 c0be dcf0 e5bd 1e9f 39bd
00000380: 6878 8aba ba0d aebd 0db4 03bf 0894 1f3e
00000390: b2ec 4ebd 95a1 a1be 9f48 c1be a20c 3f3d
000003a0: 2057 813c 82f9 eebe 657e 48be be0a 093d
000003b0: 6f0e 22be 2cbd 6c3d 767a b8be 8dcc ffbc
000003c0: 6e57 12bd 81eb 35be db61 debd d3fa cb3d
000003d0: f496 aabe 0d2d 66bb cf57 74be 1614 86bd
000003e0: 6c1c cd3b 236d a0be 8dc9 e0be ebac 4b3c
000003f0: 5be4 abbe 2fc8 64be ed56 e3be 46ad bcbd

bias f4 [128]
15.344806 11.28237 14.968571 15.139947 12.742964 15.799598 12.775751 -19.241156
-20.089783 16.024618 14.174519 15.814545 13.51576 10.186046 15.522614 -11.061443
8.95474 13.548195 -19.32356 -19.318932 13.305166 12.640428 7.76494 12.170314
-21.279928 10.667215 14.999651 -20.139738 -19.176058 15.264022 -19.149185 16.505547
-19.904055 14.877766 -19.316736 -11.555065 13.314264 14.642668 10.024064 13.092205
15.151954 15.407263 -19.841711 14.737822 -19.460804 16.62741 14.9265785 16.920258
-20.915527 10.628456 -19.728483 12.162506 13.211071 -20.901833 11.680433 16.062935
14.4328375 -19.18614 15.948232 11.421701 4.9438467 15.7151 -19.959618 15.30742
-21.103529 14.296835 14.677543 13.720615 14.98 14.251021 15.136128 14.913853
15.204064 9.215758 14.662325 14.811619 16.282295 -17.278255 15.411236 16.34584
8.9717 -21.27268 13.727631 14.959836 10.116708 11.015884 14.026565 11.957537
15.710033 14.694548 -19.199688 9.689185 11.304074 -12.319419 14.487759 14.741423
14.489679 10.2847395 10.608173 6.7354436 15.643664 7.4890184 11.007771 -20.316347
15.091354 16.292059 12.926897 11.117177 10.503955 14.508701 10.22011 -19.96333
10.246551 14.59088 10.8693 9.160392 15.402916 16.55533 -19.847761 6.800758
-1.5411242 14.803495 16.295673 11.708075 14.078188 12.285646 15.35326 15.45465
00000000: 5384 7541 9684 3441 447f 6f41 393d 7241
00000010: 2ee3 4b41 27cb 7c41 7a69 4c41 e3ed 99c1
00000020: e0b7 a0c1 6b32 8041 d4ca 6241 6008 7d41
00000030: 8e40 5841 0bfa 2241 a05c 7841 acfb 30c1
00000040: 9d46 0f41 68c5 5841 a796 9ac1 2c8d 9ac1
00000050: f6e1 5441 313f 4a41 637a f840 9bb9 4241
00000060: 4b3d aac1 eaac 2a41 92fe 6f41 2f1e a1c1
00000070: 9168 99c1 6f39 7441 8831 99c1 5c0b 8441
00000080: 813b 9fc1 540b 6e41 ad88 9ac1 8ce1 38c1
00000090: 3a07 5541 5e48 6a41 9162 2041 ac79 5141
000000a0: 676e 7241 2684 7641 d3bb 9ec1 1ece 6b41
000000b0: baaf 9bc1 f004 8541 44d3 6e41 b05c 8741
000000c0: 0053 a7c1 280e 2a41 efd3 9dc1 a099 4241
000000d0: 8c60 5341 f436 a7c1 0ee3 3a41 e480 8041
000000e0: e7ec 6641 377d 99c1 f52b 7f41 4abf 3641
000000f0: fe33 9e40 0d71 7b41 4cad 9fc1 31eb 7441
00000100: 07d4 a8c1 d6bf 6441 37d7 6a41 a487 5b41
00000110: 14ae 6f41 2f04 6441 952d 7241 249f 6e41
00000120: d943 7341 bf73 1341 e298 6a41 64fc 6c41
00000130: 2442 8241 de39 8ac1 6c94 7641 48c4 8241
00000140: 158c 0f41 732e aac1 60a4 5b41 7d5b 6f41
00000150: 09de 2141 1041 3041 cf6c 6041 1252 3f41
00000160: 4c5c 7b41 de1c 6b41 f698 99c1 e706 1b41
00000170: 7ddd 3441 571c 45c1 dccd 6741 dedc 6b41
00000180: bad5 6741 4b8e 2441 14bb 2941 c188 d740
00000190: 734c 7a41 0aa6 ef40 d41f 3041 e187 a2c1
000001a0: 3076 7141 2356 8241 92d4 4e41 f5df 3141
000001b0: 3310 2841 a423 6841 9285 2341 e6b4 9fc1
000001c0: dff1 2341 3f74 6941 a7e8 2d41 f790 1241
000001d0: 5872 7641 5171 8441 37c8 9ec1 cf9f d940
000001e0: 8f43 c5bf 1edb 6c41 8a5d 8241 4654 3b41
000001f0: 4240 6141 0292 4441 f4a6 7541 3f46 7741

weight f4 [64, 128]
0.23965687 0.28204852 0.19302654 0.06004494 0.36732164 0.09650901 0.09536395 -0.87036186
-1.0642322 0.10434705 0.10522872 0.1328942 0.12870412 0.25453967 0.23906347 -1.1879286
0.47659463 0.18408662 -0.88535506 -0.78943497 0.09837783 0.19243383 0.88879913 0.44556028
-1.0024995 0.2720171 0.21767198 -0.86432636 -0.96966016 0.30787063 -0.96336716 0.23304155
-0.92352825 0.21362697 -0.9213772 0.11086734 0.53015256 0.12776978 0.2464839 0.088598825
0.14097904 0.22456971 -1.0615946 0.18482131 -0.81653434 0.07081694 0.1687634 0.18069373
-0.998347 0.16507709 -1.1440549 0.31493714 0.5470905 -1.0284159 0.10040081 0.13957472
0.14969395 -1.0637531 0.16524021 0.20668556 1.010468 0.12747113 -0.9541154 0.21619862
-1.0901908 0.1247748 0.08277617 0.13513422 0.22031753 0.19220093 0.10677013 0.06687063
0.11728469 0.4079066 0.25995475 0.18668678 0.16914387 -1.0441624 0.16825552 0.19452119
0.801011 -0.9665616 0.43097928 0.18343104 0.2023498 0.64663935 0.5395173 0.494749
0.2244883 0.08464354 -0.983739 0.41824767 0.57566094 -1.3701577 0.08412008 0.16410245
0.19073048 0.31153592 0.18656205 0.8093078 0.13820042 0.87262535 0.23227058 -0.93736875
0.18185002 0.1801904 0.1539771 0.121715024 0.096472606 0.1168808 0.19105163 -0.85733736
0.21539308 0.12510101 0.28678712 0.9272697 0.15051252 0.18613416 -0.9701282 0.60603637
0.071689665 0.119971365 0.21151999 0.30691525 0.11983084 0.2883569 0.18783453 0.20257902
0.05928625 0.18897575 -0.038936395 0.06832418 0.15080126 -0.0018136201 -0.06860358 -0.57188994
-0.6531847 0.07658567 0.10948354 0.0015130269 0.08313659 0.20180021 0.076846644 -0.8160113
0.20785052 0.13889523 -0.45564184 -0.28681672 0.047982644 0.10190913 0.90441185 0.34370565
-0.7462604 0.0018443586 -0.04795284 -0.60323036 -0.6435393 0.045899175 -0.5674753 0.13361244
-0.40563408 0.12018557 -0.57269347 0.62988013 0.19257195 0.08286522 0.15232837 0.1273142
-0.0015351272 0.022963433 -0.6654097 -0.023207339 -0.5614336 0.04880173 0.13491492 0.047243327
-0.64665246 0.15485403 -0.6247725 0.13620164 0.30337858 -0.5763058 0.17548512 -0.029829064
-0.055270106 -0.4997466 0.0728772 0.0039945063 0.9307639 0.064577386 -0.5893139 -0.017570335
-0.7679911 0.1603722 0.069934696 -0.015573391 0.072648406 0.055919126 0.09718474 0.030790247
0.11700405 0.157145 -0.013590163 0.09540252 0.04237999 -0.9567912 0.10410023 -0.052246872
0.41528898 -0.56225026 0.22741106 -7.815089e-05 0.12359654 0.49501795 0.36937252 0.42112917
-0.02902357 0.038581878 -0.47399837 0.2519815 0.57005525 -0.68750507 -0.005614334 -0.0031063736
0.121693015 0.16847497 0.07072353 0.5891229 0.06522948 0.5867635 0.055095263 -0.5573617
0.051167887 0.052637078 0.101256005 0.18044579 0.1663841 0.06878943 0.09985277 -0.5461276
0.021180728 0.07290827 -0.089404054 0.55518234 -0.04584359 -0.00261649 -0.6696604 0.36804578
0.10360972 0.051441103 0.011166878 0.24401222 0.06744204 0.26087773 0.102070354 0.050729305
00000000: 9c68 753e aa68 903e c0a8 453e aff1 753d
00000010: 9511 bc3e 84a6 c53d 2d4e c33d 09d0 5ebf
00000020: c338 88bf e8b3 d53d 2882 d73d 6b15 083e
00000030: 03cb 033e 0653 823e 0ecd 743e 0b0e 98bf
00000040: 3604 f43e 3481 3c3e a1a6 62bf 6918 4abf
00000050: 517a c93d 600d 453e 5788 633f 7a20 e43e
00000060: e751 80bf d345 8b3e 67e5 5e3e 7e44 5dbf
00000070: a63b 78bf 38a1 9d3e 3b9f 76bf 72a2 6e3e
00000080: 596c 6cbf 07c1 5a3e 60df 6bbf 6a0e e33d
00000090: 14b8 073f 15d6 023e 4766 7c3e 4d73 b53d
000000a0: cf5c 103e 9af5 653e 55e2 87bf cc41 3d3e
000000b0: 6508 51bf 7908 913d 50d0 2c3e c707 393e
000000c0: ab93 7fbf f809 293e 6470 92bf 713f a13e
000000d0: 1f0e 0c3f 22a3 83bf f19e cd3d adec 0e3e
000000e0: 5f49 193e 1029 88bf bb34 293e 61a5 533e
000000f0: 0457 813f cb87 023e e840 74bf 2c63 5d3e
00000100: 5f8b 8bbf ee89 ff3d 8d86 a93d a060 0a3e
00000110: eb9a 613e 52d0 443e 4caa da3d 78f3 883d
00000120: f532 f03d 22d9 d03e ca18 853e d22a 3f3e
00000130: 0d34 2d3e 1da7 85bf 2d4b 2c3e 9030 473e
00000140: 0f0f 4d3f 9570 77bf 51a9 dc3e 59d5 3b3e
00000150: c934 4f3e 288a 253f ce1d 0a3f be4f fd3e
00000160: 43e0 653e 9859 ad3d 52d6 7bbf 8f24 d63e
00000170: 845e 133f 5461 afbf 2647 ac3d 790a 283e
00000180: da4e 433e a381 9f3e 1f0a 3f3e cc2e 4f3f
00000190: 6984 0d3e 6064 5f3f 57d8 6d3e 66f7 6fbf
000001a0: e436 3a3e d583 383e 2cac 1d3e ba45 f93d
000001b0: 6e93 c53d 335f ef3d 0aa3 433e 767a 5bbf
000001c0: 0190 5c3e 7b1a 003e c3d5 923e 8c61 6d3f
000001d0: f41f 1a3e f499 3e3e 525a 78bf 3325 1b3f
000001e0: 08d2 923d 8cb3 f53d b298 583e ff23 9d3e
000001f0: df69 f53d 84a3 933e b257 403e e070 4f3e
00000200: 24d6 723d dc82 413e c57b 1fbd 8ced 8b3d
00000210: a56b 1a3e feb6 edba 0980 8cbd 6167 12bf
00000220: 1d37 27bf f3d8 9c3d e838 e03d c250 c63a
00000230: 8443 aa3d b7a4 4e3e c661 9d3d 1ee6 50bf
00000240: c4d6 543e 8d3a 0e3e e349 e9be a4d9 92be
00000250: 7389 443d bcb5 d03d 8987 673f 30fa af3e
00000260: ec0a 3fbf 68be f13a 326a 44bd 4e6d 1abf
00000270: febe 24bf c600 3c3d 1046 11bf b3d1 083e
00000280: 45af cfbe da23 f63d 0a9c 12bf d33f 213f
00000290: 9531 453e 3eb5 a93d f8fb 1b3e a75e 023e
000002a0: 5236 c9ba cf1d bc3c 4a58 2abf 511d bebc
000002b0: 1dba 0fbf 53e4 473d 2327 0a3e 3882 413d
000002c0: 048b 25bf 0e92 1e3e 17f1 1fbf 7178 0b3e
000002d0: 7054 9b3e c788 13bf 5fb2 333e 155c f4bc
000002e0: e862 62bd c9de ffbe a440 953d 59e4 823b
000002f0: 8b46 6e3f 2641 843d 47dd 16bf aaef 8fbc
00000300: 119b 44bf 9c38 243e ec39 8f3d 8927 7fbc
00000310: b0c8 943d 740b 653d cb08 c73d d43b fc3c
00000320: d29f ef3d 9eea 203e 46a9 5ebc 6562 c33d
00000330: a496 2d3d 45f0 74bf 8032 d53d d100 56bd
00000340: c2a0 d43e a2ef 0fbf 72de 683e f1e4 a3b8
00000350: 2f20 fd3d fe72 fd3e 651e bd3e 3e9e d73e
00000360: d6c2 edbc 0808 1e3d eaaf f2be b803 813e
00000370: 24ef 113f 5500 30bf 72f8 b7bb 4d94 4bbb
00000380: 303a f93d b484 2c3e 80d7 903d c2d0 163f
00000390: 0997 853d 2236 163f 92ab 613d 42af 0ebf
000003a0: 6b95 513d fa99 573d 4f5f cf3d c8c6 383e
000003b0: 9860 2a3e 79e1 8c3d 9c7f cc3d 05cf 0bbf
000003c0: 3583 ad3c ee50 953d 7919 b7bd 6e20 0e3f
000003d0: 7dc6 3bbd 6b79 2bbb dd6e 2bbf 7f70 bc3e
000003e0: 5531 d43d e8b3 523d 48f5 363c 57de 793e
000003f0: 0d1f 8a3d c491 853e 430a d13d 88c9 4f3d

bias f4 [64]
16.808733 14.638156 -12.08371 16.630213 -6.579824 -6.94107 14.291975 -12.059286
-2.3647957 9.830987 -8.79108 -14.076444 -6.0123434 8.99597 11.576247 7.103773
15.191749 15.812142 -7.386985 16.10019 16.736044 16.501574 -8.880445 -14.278924
14.742764 7.7227564 0.30570787 -13.782278 16.69561 -9.9118185 -5.619838 12.424154
-8.551359 15.990376 16.092834 16.260672 16.217598 -7.820089 16.666811 15.601861
15.6017685 5.0907516 13.673245 16.638329 -3.4880803 9.594748 16.732454 -12.639762
15.5365715 18.036686 16.65477 16.553988 9.780074 15.408853 0.18204662 -0.22051965
16.553667 16.414135 16.47977 13.780903 15.653319 0.17847909 16.521118 16.567566
00000000: 4978 8641 e335 6a41 e056 41c1 ad0a 8541
00000010: eb8d d2c0 3f1d dec0 eeab 6441 d6f2 40c1
00000020: d058 17c0 b94b 1d41 44a8 0cc1 1d39 61c1
00000030: 1e65 c0c0 7eef 0f41 4f38 3941 1c52 e340
00000040: 6711 7341 89fe 7c41 2e62 ecc0 30cd 8041
00000050: 6be3 8541 3903 8441 4d16 0ec1 7976 64c1
00000060: 5de2 6b41 d220 f740 be85 9c3e 3684 5cc1
00000070: 9c90 8541 cf96 1ec1 b7d5 b3c0 56c9 4641
00000080: 5ed2 08c1 95d8 7f41 20be 8041 db15 8241
00000090: a4bd 8141 2b3e fac0 a155 8541 39a1 7941
000000a0: d8a0 7941 70e7 a240 9dc5 5a41 4c1b 8541
000000b0: b53c 5fc0 1684 1941 11dc 8541 773c 4ac1
000000c0: cc95 7841 224b 9041 f83c 8541 916e 8441
000000d0: 2f7b 1c41 a98a 7641 6e6a 3a3e e7cf 61be
000000e0: e96d 8441 2650 8341 92d6 8341 947e 5c41
000000f0: ff73 7a41 39c3 363e 402b 8441 608a 8441

weight f4 [4, 64]
0.12030571 0.061122723 -0.18286031 0.106601276 0.01803419 -0.14148849 0.08092004 0.017475145
0.060529258 0.1076091 -0.15523717 -0.17631777 -0.06035535 -0.04109694 0.04851896 0.042139687
0.16272223 0.07136773 -0.018073017 0.04899931 0.05498511 0.06560194 -0.11906649 -0.14053862
0.0571828 0.08990467 0.04774562 -0.105971925 0.19745187 -0.05675595 -0.13212124 0.07105041
-0.113467716 0.04862211 0.118958 0.19716714 0.23121001 -0.082072444 0.18669721 0.16850941
0.07571175 -0.050801314 0.0729215 0.18360041 -0.03284254 0.20863305 0.24038051 -0.13587008
0.2145639 0.7877947 0.060275927 0.1827354 0.32439798 0.18245447 0.0397546 0.007008943
0.26004368 0.045157902 0.15522704 0.13553226 0.21026616 0.10803484 0.21925315 0.06427717
0.2895796 0.15410595 0.035239518 0.2601731 -0.010030607 -0.015468003 0.11452981 -0.019996684
-0.014501287 0.07319461 -0.16374208 -0.16871764 -0.20525235 0.07913748 0.042729657 -0.17936309
0.21215537 0.24914171 -0.013711493 0.21838869 0.26405138 0.11055862 0.09177382 -0.17179598
0.046804022 -0.0329276 0.12314516 -0.033167515 0.2439312 0.09184665 -0.12322039 0.2962669
0.08329691 0.13688457 0.18785198 0.09004598 0.3080802 -0.008409471 0.2673608 0.15865043
0.04919497 0.13076961 0.14112835 0.1359333 -0.01853838 0.14380084 0.16655758 0.040168237
0.22079712 1.2172445 0.13645901 0.25819236 0.40230662 0.13636 0.19456884 0.002188223
0.19691844 0.2400806 0.24971619 0.15308526 0.1438042 0.094988085 0.29445454 0.19604552
0.31295118 0.116980575 -0.07957182 0.32747573 0.35519892 -0.1116278 0.13722159 0.231705
0.17295255 0.04394887 -0.22318594 -0.010357692 -0.18623325 0.04643674 0.16212901 -0.4473793
0.22485581 0.32839763 0.34018058 0.24114278 0.31279537 0.27192402 0.17307349 0.03326641
0.116810754 -0.030201094 0.07014855 0.16643201 0.39372528 0.18457004 -0.16912654 0.81162286
0.27560675 0.2911572 0.21049944 0.279562 0.33174488 -0.11872095 0.40941098 0.18135628
0.12317435 0.19194818 0.10587814 0.3547128 -0.101169206 0.068697095 0.34978503 0.16168557
0.23766239 1.0753322 0.29861125 0.32186002 0.13514368 0.22367488 -0.013346606 0.40500626
0.34866324 0.3080629 0.30578622 0.16904876 0.32665816 -0.010170491 0.40858218 0.31403854
0.3413108 0.21561024 0.0047025294 0.30495015 0.34912217 -0.2383272 0.33445418 0.1112363
0.13681972 0.56201553 -0.05407275 0.037282825 -0.20634459 0.4049471 0.98904556 1.5149254
0.25686297 0.26639116 0.3451043 0.34302896 0.35561618 0.36061606 0.10012714 0.047508117
0.3434814 1.0339242 -0.06694828 0.0773074 0.3193701 0.09752124 -0.025704771 1.9127455
0.09306025 0.31933716 0.26632154 0.35179657 0.3553329 -0.056965567 0.338053 0.25109708
0.3431226 0.46136004 0.29193863 0.3130536 0.07552217 0.4046878 0.31650633 0.07161495
0.32287785 0.7593401 0.3630204 0.2739421 0.45912218 0.27684304 -0.11293721 0.25239223
0.34865144 0.27532133 0.36110944 0.30874428 0.26866266 -0.05656712 0.3347568 0.32396913
00000000: d762 f63d d25b 7a3d bc3f 3bbe c551 da3d
00000010: 70bc 933c 5ce2 10be 68b9 a53d 0928 8f3c
00000020: 87ed 773d 2962 dc3d 7ef6 1ebe a58c 34be
00000030: 2c37 77bd 4455 28bd d1bb 463d aa9a 2c3d
00000040: a8a0 263e 3f29 923d dd0d 94bc 80b3 483d
00000050: 1138 613d 4f5a 863d 22d9 f3bd 5be9 0fbe
00000060: 8338 6a3d f11f b83d e990 433d cf07 d9bd
00000070: d330 4a3e ed78 68bd ca4a 07be e182 913d
00000080: c361 e8bd fa27 473d 40a0 f33d 2fe6 493e
00000090: 51c2 6c3e 9915 a8bd 8e2d 3f3e bb8d 2c3e
000000a0: c30e 9b3d 0a15 50bd de57 953d bf01 3c3e
000000b0: e685 06bd e7a3 553e 4f26 763e 8721 0bbe
000000c0: a4b6 5b3e eaac 493f e4e3 763d fd1e 3b3e
000000d0: 7e17 a63e 58d5 3a3e b8d5 223d 46ab e53b
000000e0: 7224 853e 7ef7 383d d6f3 1e3e f8c8 0a3e
000000f0: 0350 573e 5f41 dd3d e683 603e c0a3 833d
00000100: c743 943e f3cd 1d3e 5057 103d 6935 853e
00000110: 6a57 24bc 826d 7dbc 9b8e ea3d 16d0 a3bc
00000120: ce96 6dbc 0ee7 953d 01ac 27be 51c4 2cbe
00000130: ac2d 52be d512 a23d 4b05 2f3d f5aa 37be
00000140: 423f 593e 011f 7f3e 2ca6 60bc 49a1 5f3e
00000150: be31 873e 8f6c e23d eaf3 bb3d 49eb 2fbe
00000160: 93b5 3f3d 17df 06bd 8833 fc3d a9da 07bd
00000170: 1ac9 793e 191a bc3d f95a fcbd 4cb0 973e
00000180: 9297 aa3d 782b 0c3e 455c 403e 076a b83d
00000190: b0bc 9d3e e1c7 09bc 84e3 883e 4275 223e
000001a0: aa80 493d 78e8 053e f383 103e 1932 0b3e
000001b0: cddd 97bc 8740 133e 128e 2a3e 7387 243d
000001c0: a418 623e abce 9b3f e9bb 0b3e ca31 843e
000001d0: 22fb cd3e f5a1 0b3e 0e3d 473e 4a68 0f3b
000001e0: fda4 493e b0d7 753e 9ab5 7f3e 62c2 1c3e
000001f0: 6941 133e 1d89 c23d bfc2 963e 28c0 483e
00000200: 233b a03e 8393 ef3d 8df6 a2bd e6aa a73e
00000210: a2dc b53e 1e9d e4bd d183 0c3e 1344 6d3e
00000220: 791a 313e bb03 343d db8a 64be 4fb3 29bc
00000230: eeb3 3ebe 7334 3e3d 2605 263e e60e e5be
00000240: 9a40 663e bc23 a83e 262c ae3e 22ee 763e
00000250: b726 a03e a039 8b3e 2d3a 313e 5c42 083d
00000260: 7a3a ef3d 4968 f7bc 0baa 8f3d 276d 2a3e
00000270: 5c96 c93e eeff 3c3e 822f 2dbe 84c6 4f3f
00000280: 541c 8d3e 8e12 953e 2a8d 573e c022 8f3e
00000290: 77da a93e f823 f3bd 519e d13e 76b5 393e
000002a0: d542 fc3d 108e 443e a3d6 d83d eb9c b53e
000002b0: cd31 cfbd 10b1 8c3d 0617 b33e e790 253e
000002c0: c55d 733e 7ca4 893f 93e3 983e d6ca a43e
000002d0: 1b63 0a3e 070b 653e b9ab 5abc fb5c cf3e
000002e0: fd83 b23e 6cba 9d3e 0390 9c3e 1e1b 2d3e
000002f0: bd3f a73e 22a2 26bc af31 d13e a9c9 a03e
00000300: 4ac0 ae3e eec8 5c3e ad17 9a3b 6d22 9c3e
00000310: 24c0 b23e 0c0c 74be 943d ab3e dbcf e33d
00000320: 781a 0c3e 40e0 0f3f 637b 5dbd e0b5 183d
00000330: ff4b 53be 3a55 cf3e 1732 7d3f 13e9 c13f
00000340: 8b83 833e 6c64 883e 83b1 b03e 7ea1 af3e
00000350: 5313 b63e aba2 b83e 750f cd3d df97 423d
00000360: cbdc af3e a157 843f 2e1c 89bd 5853 9e3d
00000370: 7a84 a33e 37b9 c73d d092 d2bc d8d4 f43f
00000380: 5f96 be3d 2980 a33e 4c5b 883e ae1e b43e
00000390: 32ee b53e ba54 69bd 4815 ad3e cc8f 803e
000003a0: c4ad af3e 6237 ec3e fb78 953e 9048 a03e
000003b0: 5eab 9a3d 3d33 cf3e 1e0d a23e dcaa 923d
000003c0: 3f50 a53e 1d64 423f cfdd b93e 2442 8c3e
000003d0: 1012 eb3e 5fbe 8d3e a04b e7bd 8e39 813e
000003e0: 7182 b23e ebf6 8c3e 56e3 b83e bb13 9e3e
000003f0: 278e 893e edb2 67bd 3e65 ab3e 48df a53e

bias f4 [4]
7.790448 7.7391806 11.073962 11.175471
00000000: 5a4b f940 5ea7 f740 f32e 3141 bbce 3241
