src/model.pth (torch, 73192 bytes, 8 tensors)

weight f4 [64, 6]
0	0x3d88134c	0.066443056
1	0x3eea8d02	0.45810705
2	0xc02e91a7	-2.72764
3	0x403643ad	2.8478806
4	0xbdbc9596	-0.09208219
5	0x411859b8	9.521904
6	0xbe9a27bf	-0.3010845
7	0x3e9a5035	0.30139318
8	0x40580e26	3.3758636
9	0xbfce56dc	-1.6120257
10	0x3f01396f	0.5047826
11	0xc0c86bfd	-6.263182
12	0x3c8fe3bc	0.017564647
13	0xbe729f46	-0.2369357
14	0xc02e31f2	-2.7217984
15	0x4024dd1b	2.5759952
16	0xbdfa6554	-0.12226358
17	0x411fdf07	9.99195
18	0xbec9a787	-0.39385626
19	0xbe294e30	-0.16533732
20	0x408cd268	4.4006844
21	0xc0a4aeac	-5.1463223
22	0xbd1ab005	-0.03776552
23	0xc155900b	-13.347667
24	0xbf074ae1	-0.5284863
25	0xbed83f7d	-0.42235938
26	0x4081b9a5	4.0539117
27	0xc0a284d3	-5.078714
28	0x3e052d96	0.13005671
29	0xc15d8e84	-13.847294
30	0x3e08668a	0.13320366
31	0xbe1b3106	-0.1515542
32	0xc0837075	-4.1074777
33	0x4050cf58	3.2626553
34	0xbd0095fa	-0.03139303
35	0x413fd61c	11.989773
36	0xbcd3e096	-0.025863927
37	0x3ed3b7df	0.4135122
38	0xbfe047dc	-1.752193
39	0x4007469c	2.1136847
40	0x3d3f7c4c	0.046749398
41	0x40ff31d9	7.974835
42	0xbd2f7b9d	-0.042842496
43	0x3ed17aa3	0.40913877
44	0xc0445b06	-3.0680556
45	0x40379ec9	2.8690665
46	0x3dfd8699	0.12379188
47	0x412825e5	10.509252
48	0xbcb8f00d	-0.022575403
49	0xbf4b755a	-0.7947594
50	0xc026c86a	-2.6059823
51	0x3f446571	0.7671729
52	0xbf53cf0d	-0.8273781
53	0x410c1aac	8.756512
54	0x3c6e65cd	0.014550638
55	0x3bc5e20b	0.0060389093
56	0xc05d6d6c	-3.4598036
57	0x405a9e7a	3.4159226
58	0xbc8b4d59	-0.017004656
59	0x4138e7c9	11.556588
60	0xbc6c93d1	-0.014439539
61	0xbf33ced5	-0.70237476
62	0xbfe76cd9	-1.8080093
63	0x3f83bb98	1.0291624
64	0xbea8779d	-0.32903758
65	0x410ae5f9	8.681146
66	0x3d8b4c95	0.06801716
67	0xbeaeaf08	-0.34117913
68	0xc0850ad0	-4.15757
69	0x4053d9d7	3.310171
70	0x3de5a0e1	0.11212326
71	0x412f7b95	10.967671
72	0x3e1fed33	0.15617828
73	0xbf33ae7d	-0.70188123
74	0xc0b8e48c	-5.777899
75	0x4016dc45	2.3571942
76	0xbf282ec1	-0.6569634
77	0x4149b933	12.607715
78	0xbd6fde68	-0.058561713
79	0x3e55eaf6	0.20890412
80	0xc06474b0	-3.569622
81	0x401882a6	2.3829741
82	0xbd2d5a69	-0.04232255
83	0x41216de7	10.089332
84	0xbd2014c1	-0.039082292
85	0xbedf941c	-0.43667686
86	0xbfcb30ed	-1.5874306
87	0x3ec66aa0	0.38753223
88	0xbf0e411d	-0.55568105
89	0x40f77142	7.7325754
90	0xbcee1f19	-0.029067563
91	0xbf5f4fe2	-0.87231266
92	0xbfe69075	-1.8012835
93	0x3f0ebf2b	0.5576045
94	0xbf868c98	-1.0511656
95	0x4101a289	8.102181
96	0x3cf33e47	0.029692782
97	0xbf46da35	-0.7767671
98	0xc0613f3b	-3.5194843
99	0x3f57cada	0.842939
100	0xbf586e6e	-0.845435
101	0x411e7a69	9.904885
102	0xbeb50757	-0.35357162
103	0xbeea3be5	-0.4574882
104	0x408042a3	4.0081344
105	0xc0c15b75	-6.042414
106	0x3d85b13a	0.06527944
107	0xc173180d	-15.193372
108	0xbf09d193	-0.5383541
109	0xbee05a69	-0.43818977
110	0x4095a542	4.676423
111	0xc08fdbbb	-4.4955726
112	0x3da99e1b	0.08282109
113	0xc14c488e	-12.767714
114	0xbef2cd0c	-0.47422063
115	0xbebaa36e	-0.36452812
116	0x408d774f	4.420814
117	0xc0aba989	-5.364445
118	0x3d0936a6	0.033499382
119	0xc159afb4	-13.605396
120	0xbe9ffa71	-0.3124576
121	0xbf2d84d9	-0.67780834
122	0x4098dfc4	4.777315
123	0xc0d29c27	-6.5815616
124	0xbe38afc5	-0.18035801
125	0xc178ae7d	-15.5426
126	0xbeab03e3	-0.33401403
127	0xbeb30667	-0.34965822
128	0x40917828	4.5459175
129	0xbf9c665a	-1.2218735
130	0x3ec6327c	0.38710392
131	0xc0f275f2	-7.5768976
132	0xbf0fd242	-0.561802
133	0x3df13bbe	0.11778973
134	0x40853ca9	4.163655
135	0xc0a671ae	-5.201377
136	0xbd4e53bd	-0.050372828
137	0xc15fabc2	-13.979433
138	0xbd1206e5	-0.035651106
139	0xbea13cd8	-0.31491733
140	0xc04d7477	-3.2102334
141	0x4010cb30	2.2624016
142	0xbd9457be	-0.07243298
143	0x4118f18f	9.558974
144	0xbd3022bc	-0.043001875
145	0xbc5eaf65	-0.013591622
146	0xc0947794	-4.639597
147	0x407ce31b	3.9513614
148	0xbb92d6cc	-0.004481172
149	0x410f328b	8.94984
150	0xbd08fd57	-0.03344473
151	0xbebc896c	-0.36823595
152	0xc00a6f6b	-2.1630504
153	0x3fbfaf64	1.49754
154	0x3d06f09b	0.032944303
155	0x40f7138c	7.721136
156	0xbd892871	-0.06697167
157	0xbda33315	-0.079687275
158	0xc0758f86	-3.836885
159	0x4034df6d	2.8261368
160	0xbc1673cd	-0.0091828825
161	0x41275f07	10.4607
162	0xbc3d7c1e	-0.011565236
163	0xbf8696c3	-1.0514759
164	0xbfbbf5c6	-1.4684379
165	0x3e8f43f3	0.2798153
166	0xbf65e7c8	-0.89806795
167	0x410780d6	8.468954
168	0xbd7b2349	-0.061312947
169	0xbe45dd29	-0.19322647
170	0xc0318421	-2.7736895
171	0x400e77a2	2.2260518
172	0x3df9c00a	0.12194832
173	0x4112eff6	9.183584
174	0xbebda06e	-0.3703646
175	0xbe453123	-0.19257025
176	0x40761394	3.844945
177	0xbfd18a85	-1.6370398
178	0x3ea90d40	0.3301792
179	0xc10ec0de	-8.922087
180	0xbd3d6404	-0.04623796
181	0xbdf8165b	-0.12113639
182	0xc03bf007	-2.936525
183	0x401790f3	2.368222
184	0xbe7e9543	-0.24861626
185	0x412b37cd	10.701123
186	0xbd3a0750	-0.04541713
187	0xbef91159	-0.48646048
188	0xbffe9107	-1.9888009
189	0x3f5aa509	0.85408074
190	0xbef97e28	-0.48729062
191	0x40f9e6c2	7.8094187
192	0xbd0b6774	-0.034034207
193	0x3e6710f9	0.22565068
194	0xc0206d99	-2.5066893
195	0x3fdf970f	1.7467974
196	0xbe5c69cf	-0.21524738
197	0x41108123	9.0315275
198	0xbd3e1377	-0.046405282
199	0xbdbee9d8	-0.09321946
200	0xc045f5af	-3.0931203
201	0x4029f877	2.65579
202	0xbd057954	-0.03258641
203	0x41239fe9	10.226541
204	0xbe7a7948	-0.24460328
205	0xbf1d75c2	-0.6150781
206	0x40958121	4.672013
207	0xc0c0b441	-6.0220037
208	0x3beb4984	0.0071803946
209	0xc16a5c20	-14.647491
210	0x3cb6a4ac	0.022295319
211	0xbf15f7ee	-0.58581436
212	0xc072015c	-3.781333
213	0x3fa079f5	1.2537218
214	0xbf4ebfb6	-0.8076128
215	0x4131182b	11.0684
216	0xbcc585c1	-0.02411163
217	0xbf893898	-1.0720396
218	0xbffd1cc6	-1.9774406
219	0x3dd1d347	0.10245376
220	0xbf9fa4c2	-1.2472155
221	0x4117cdd9	9.487756
222	0xbeac53d2	-0.336577
223	0xbdc5ac5f	-0.09652018
224	0x405acf91	3.4189188
225	0xbf98f8a7	-1.1950883
226	0x3ebea7df	0.3723745
227	0xc0fefd3c	-7.9684124
228	0xbf07924a	-0.52957594
229	0xbf14b5ca	-0.5808989
230	0x40715f93	3.7714584
231	0xc0845630	-4.135521
232	0x3df2f004	0.118621856
233	0xc14274e7	-12.153541
234	0xbd4decef	-0.050274786
235	0xbf342c05	-0.7037967
236	0xc02bb501	-2.6829226
237	0x3f27b7b8	0.6551471
238	0xbf8bae8e	-1.0912645
239	0x41120797	9.126853
240	0xbce863a4	-0.028367825
241	0xbf2dac7c	-0.67841315
242	0xbfdb0638	-1.7111273
243	0x3eb17e4b	0.34666666
244	0xbf0a52f8	-0.5403285
245	0x40e97e2d	7.2966523
246	0xbf00661e	-0.5015582
247	0xbe88e96e	-0.26740593
248	0x408c2cfb	4.380491
249	0xc0a161b9	-5.043179
250	0xbd7aca74	-0.06122823
251	0xc1633c14	-14.2021675
252	0xbd168f80	-0.036757946
253	0xbe082d38	-0.132985
254	0xc084fb40	-4.15567
255	0x4035b5e2	2.8392262

bias f4 [64]
0	0x406ddf3f	3.7167509
1	0xbfd5d8fd	-1.6706845
2	0x40616008	3.5214863
3	0xc1042e01	-8.261231
4	0xc0ede478	-7.4341393
5	0x40a7cf9e	5.244094
6	0x405c3fdc	3.4413977
7	0x408508bf	4.1573176
8	0x403a9d83	2.9158638
9	0x409d344c	4.912634
10	0x405e3018	3.4716854
11	0x409262ed	4.574576
12	0x409a0e46	4.8142424
13	0x40795f06	3.8964248
14	0x400ec045	2.2304852
15	0x4054013d	3.3125756
16	0x4023d746	2.5600142
17	0xc11529d4	-9.322712
18	0xc0e15168	-7.0411873
19	0xc0fb9519	-7.8619504
20	0xc120eab7	-10.057303
21	0xc0037505	-2.0540173
22	0xc1078398	-8.469627
23	0x406e145c	3.7199926
24	0x407f87b8	3.9926586
25	0x40518421	3.2736895
26	0x40702eaa	3.7528481
27	0x404c319d	3.1905282
28	0x40878e83	4.2361465
29	0xc0248a80	-2.5709534
30	0x408a4ee1	4.322129
31	0x40194040	2.3945465
32	0x4034eb55	2.8268635
33	0x4088d2da	4.2757387
34	0xc1142df0	-9.261215
35	0x4031230f	2.7677648
36	0x4082de93	4.0896697
37	0xc021fa4e	-2.5309024
38	0xc0e87444	-7.2641926
39	0x403ef237	2.9835336
40	0x403ba2e7	2.9318178
41	0xc105aa4c	-8.354076
42	0x406ed9b5	3.7320378
43	0x4045562f	3.0833852
44	0x40273fa8	2.6132603
45	0x40716592	3.7718244
46	0xc0f33c54	-7.6011143
47	0x4038ebd1	2.889393
48	0x402d5295	2.7081654
49	0x40485409	3.130129
50	0x40730c5e	3.7976298
51	0xbfac3169	-1.3452579
52	0xc099d5f4	-4.8073673
53	0x40889ebb	4.2693763
54	0xc1008006	-8.031256
55	0x404cc27b	3.1993701
56	0xbf090f09	-0.53538567
57	0xbfba0569	-1.4532901
58	0xc0278dc3	-2.6180274
59	0xc0e94c98	-7.2906
60	0xc018b7ee	-2.3862262
61	0x4047feef	3.124935
62	0xc101d1f3	-8.113757
63	0x40423225	3.0343106

weight f4 [128, 64]
0	0x3dd81e65	0.10552672
1	0xbf24e355	-0.6440938
2	0x3b91bddf	0.004447683
3	0xbebefc1b	-0.37301716
4	0xbe9a615f	-0.30152413
5	0x3d80e75d	0.06294129
6	0x3e23f1d3	0.16010217
7	0x3d6f9727	0.05849376
8	0x3cd409be	0.025883552
9	0x3e745f1b	0.23864405
10	0x3e1c1d07	0.15245448
11	0xbd556fe3	-0.052108657
12	0x3d2f4726	0.04279246
13	0x3e144392	0.14478901
14	0x3d91386f	0.07090842
15	0xbd5a6892	-0.053322382
16	0x3d82f556	0.0639445
17	0xbea400ea	-0.32031947
18	0xbeb6f58c	-0.35734212
19	0xbea36b90	-0.31918
20	0xbe3acb46	-0.18241605
21	0xbedb407c	-0.42822635
22	0xbdbba21b	-0.091617785
23	0x3e03297a	0.12808791
24	0x3ebc6640	0.3679676
25	0xbbe843cb	-0.0070881597
26	0x3c8a1c57	0.016859217
27	0x3df0bae9	0.117544
28	0xbb811b04	-0.003939988
29	0xbf5d7b1c	-0.86515975
30	0x3db5b3e8	0.08872205
31	0x3d3f8b8c	0.04676394
32	0x3dbaf792	0.091292515
33	0x3d7018a5	0.058617253
34	0xbed2d727	-0.41179773
35	0x3e0bac2e	0.136399
36	0x3ca57bda	0.020200659
37	0xbf254cdd	-0.6457041
38	0xbe51dda0	-0.204947
39	0x3d5b8604	0.053594604
40	0x3e198ad7	0.1499437
41	0xbe1cd6af	-0.1531627
42	0x3e8df452	0.27725464
43	0x3dddf9d1	0.10838664
44	0x3dd18a47	0.102314524
45	0x3d3fe112	0.046845503
46	0xbe763e14	-0.24047118
47	0xbbc08623	-0.0058753653
48	0x3d7c8ff4	0.061660722
49	0x3e308cbd	0.17241187
50	0x3e9801da	0.29688913
51	0xbeea0fa0	-0.45715046
52	0xbf1b6fb4	-0.6071732
53	0x3e0ab308	0.13544858
54	0xbe472f33	-0.19451599
55	0x3df8fee3	0.12157991
56	0xbe957355	-0.29189554
57	0xbf03551d	-0.5130175
58	0xbef800a6	-0.48437995
59	0xbe4c0ac1	-0.19925977
60	0xbf0dd523	-0.55403346
61	0x3d517215	0.051134188
62	0xbe04aae5	-0.12955816
63	0xbcfc1300	-0.030770779
64	0x3d372343	0.044711363
65	0xbf2951e0	-0.66140556
66	0xbda49740	-0.08036661
67	0xbd439f32	-0.047759242
68	0x3e674b96	0.22587427
69	0xbdd1a91b	-0.102373324
70	0x3d9cd250	0.076573014
71	0x3d064430	0.032779872
72	0x3e4aba60	0.19797659
73	0x3dd90531	0.10596693
74	0x3e128001	0.14306642
75	0x3e25271d	0.16128202
76	0x3e11cd74	0.1423853
77	0xbd14490e	-0.036202483
78	0x3dd5e9f2	0.10445012
79	0x3edb6b68	0.42855382
80	0x3e127ce1	0.1430545
81	0x3e99f463	0.30069265
82	0x3d92e92a	0.07173379
83	0xbbab9a30	-0.0052368864
84	0x3e5f1510	0.21785378
85	0xbed41627	-0.4142315
86	0x3e7403fe	0.23829648
87	0x3c9e352d	0.019312466
88	0xbe886cc8	-0.26645494
89	0x3ca7b8a2	0.020473782
90	0xbdcd8f17	-0.10037058
91	0x3edc6368	0.4304459
92	0xbd86ff03	-0.065916084
93	0xbf1f6d86	-0.62276495
94	0x3d3ba8fd	0.045815457
95	0x3e145c2e	0.14488289
96	0x3dfc0cef	0.123071544
97	0x3db48a3b	0.08815428
98	0x3e39b512	0.18135479
99	0x3e57fa86	0.21091661
100	0x3f148028	0.5800805
101	0xbf11d119	-0.5695968
102	0x3d8f5b7a	0.0699987
103	0x3e649692	0.22323063
104	0x3dacc3c0	0.08435774
105	0x3e781337	0.2422608
106	0xbe0ad5cb	-0.13558118
107	0xbda5f1f8	-0.081027925
108	0x3dead580	0.11466503
109	0xbc01ddf3	-0.007926452
110	0x3e3a64bf	0.18202494
111	0x3f0c863d	0.5489233
112	0x3e74b80e	0.23898336
113	0x3e82ea38	0.2556932
114	0x3f80e53d	1.0069958
115	0xbeda29e0	-0.42610073
116	0xbea2bdf8	-0.3178556
117	0xbe240430	-0.16017222
118	0x3d8c038d	0.06836615
119	0xbdc50001	-0.09619141
120	0xbf33d936	-0.7025331
121	0xbf13bf9e	-0.5771426
122	0xbea3d973	-0.32001838
123	0x3e0bd015	0.13653596
124	0xbf0db3ce	-0.55352485
125	0x3d3d300e	0.046188407
126	0x3e59138f	0.21198867
127	0xbc9e7178	-0.019341215
128	0x3d61ccfe	0.055127136
129	0x3d33fb06	0.043940566
130	0x3d06cc80	0.03290987
131	0xbe8b7ae0	-0.27242184
132	0xbe456a40	-0.19278812
133	0x3d0112fe	0.031512253
134	0x3e04bed0	0.12963414
135	0x3e5ab8e5	0.21359594
136	0x3e3133ba	0.17304888
137	0x3e19a205	0.15003212
138	0x3ddfff97	0.10937422
139	0x3d8d4e0a	0.068996504
140	0x3dc8b8d8	0.09800881
141	0x3e225808	0.15853894
142	0x3e067655	0.13131078
143	0x3ead469b	0.3384293
144	0x3cce1c3e	0.025159951
145	0xbe5267ee	-0.20547459
146	0xbe94379c	-0.28948677
147	0xbea66838	-0.32501388
148	0xbecf126e	-0.40443748
149	0xbe4d26fa	-0.200344
150	0xbdb7e943	-0.08980038
151	0x3dd04ba6	0.10170679
152	0x3d2adce3	0.04171456
153	0x3e2deea5	0.16985567
154	0xbd005b83	-0.031337272
155	0x3e1f8ed3	0.15581827
156	0x3d83e6e6	0.06440525
157	0xbdb0c26b	-0.08630832
158	0x3d961dfb	0.07329937
159	0x3daf81ae	0.08569656
160	0x3df89973	0.12138643
161	0x3e6e38a4	0.23263794
162	0xbe5efab2	-0.2177532
163	0x3d908128	0.070558846
164	0x3e55e448	0.20887864
165	0x3d8b6cab	0.06807836
166	0xbe72ab2b	-0.23698108
167	0x3e11f4bd	0.14253516
168	0x3dedf2fb	0.116186105
169	0xbece2716	-0.40264195
170	0x3da92c6b	0.08260425
171	0x3e47814a	0.19482914
172	0x3d9a530e	0.07535373
173	0x3d9a132f	0.0752319
174	0xbe8c973f	-0.27459142
175	0x3d2ffdc5	0.042966623
176	0x3dbf4ee1	0.09341217
177	0x3d0ffa6b	0.035150927
178	0x3f01933a	0.50615275
179	0xbc2f9bee	-0.010718329
180	0xbe446211	-0.19178034
181	0x3e4043ab	0.18775813
182	0xbe9f2565	-0.31083217
183	0x3ca3c255	0.019990126
184	0xbcb0ac75	-0.021566609
185	0x3cf7e3be	0.030259963
186	0xbd5e0b3a	-0.054209925
187	0xbe3e8023	-0.18603568
188	0xbdd4a15e	-0.10382341
189	0x3ce93c48	0.028471127
190	0xbeb80229	-0.35939148
191	0x3dabb650	0.08384383
192	0x3d880895	0.06642262
193	0xbe1470eb	-0.144962
194	0x3e2da0a4	0.16955811
195	0xbe27588e	-0.16342375
196	0xbeb022f8	-0.3440168
197	0x3ceed3ea	0.029153783
198	0x3dec0399	0.11524124
199	0x3dfc7a2a	0.123279884
200	0x3d87a2b2	0.066228285
201	0x3db56fb5	0.08859197
202	0x3e58c63f	0.21169375
203	0x3d3fab10	0.046793997
204	0x3e0a7c9e	0.135241
205	0x3dd88342	0.105719104
206	0x3d899f42	0.06719829
207	0x3e862381	0.26198962
208	0x3da3cd62	0.07998158
209	0xbe4d5b6d	-0.20054407
210	0xbe240bd9	-0.16020145
211	0xbd5a3bc3	-0.05327965
212	0xbedb84e9	-0.4287484
213	0xbd9bbe39	-0.076046415
214	0xbeb4ec9b	-0.35336766
215	0x3e10fd97	0.14159237
216	0x3daf50ca	0.08560331
217	0x3d6372b9	0.05552933
218	0x3dfae124	0.122499734
219	0x3e02c3aa	0.12769952
220	0x3e04b939	0.12961282
221	0xbe1e8874	-0.1548174
222	0x3df028be	0.11726521
223	0x3e07c3c3	0.13258271
224	0x3e105972	0.1409662
225	0x3dd77a14	0.105213314
226	0xbec0d13c	-0.37659633
227	0x3e416cc5	0.18889149
228	0x3e443954	0.19162494
229	0xbdbb16ff	-0.091352455
230	0xbebe2830	-0.37140036
231	0x3dae275a	0.085035995
232	0x3e3106cd	0.1728775
233	0xbe9150d3	-0.28381976
234	0x3dc3feae	0.09570061
235	0x3d99283d	0.07478378
236	0x3cc88ba8	0.024480656
237	0x3e0dd6be	0.13851449
238	0xbe813c80	-0.2524147
239	0x3d11c766	0.03559055
240	0xbd1d64f4	-0.038426355
241	0x3d29f003	0.04148866
242	0x3f04878a	0.51769316
243	0x3e29a43a	0.16566554
244	0xbe3aea9b	-0.18253557
245	0x3e8494c4	0.2589475
246	0xbe5febd4	-0.21867305
247	0x3dc4e05e	0.09613107
248	0x3de9cec4	0.114163905
249	0xbd452fc8	-0.04814127
250	0xbe18748d	-0.1488821
251	0x3bba012b	0.0056764088
252	0xbd6ae7d3	-0.05734999
253	0xbbb97a2d	-0.0056603164
254	0xbe86f65b	-0.2635983
255	0xbc04d3f2	-0.008107172

bias f4 [128]
0	0x40baea81	5.841126
1	0x40dc8407	6.8911166
2	0x40b8477e	5.758727
3	0x40c27c90	6.0777054
4	0x40dcf932	6.9054193
5	0x40c03742	6.0067453
6	0x40d25c63	6.5737777
7	0xc12a56ac	-10.64616
8	0xc132911a	-11.160425
9	0x40af9bb2	5.487756
10	0x40b19e61	5.5505834
11	0x40b83295	5.7561746
12	0x40b51124	5.6583424
13	0x40d58547	6.672519
14	0x40d8b19c	6.771681
15	0xc04b5cb0	-3.1775322
16	0x40a836b2	5.2566767
17	0x40ab8f87	5.3612704
18	0xc12d77b8	-10.841728
19	0xc12bb4a2	-10.7316
20	0x40b9141d	5.783705
21	0x40da6d7f	6.825866
22	0x40b63a57	5.6946216
23	0x40bcfc69	5.905812
24	0xc1412768	-12.072121
25	0x40a34181	5.101746
26	0x40b009c7	5.5011935
27	0xc131f47f	-11.122191
28	0xc12764ad	-10.462079
29	0x40cfb623	6.4909835
30	0xc1260cf8	-10.378166
31	0x40cc7ae2	6.3900003
32	0xc132d46d	-11.176862
33	0x40ba1cee	5.8160315
34	0xc12ae043	-10.679751
35	0xc0b7b5c1	-5.7409368
36	0x40cb162e	6.3464575
37	0x40b2db52	5.5892725
38	0x40bf5c57	5.980022
39	0x40ceeb38	6.466213
40	0x40b87677	5.764461
41	0x40ce4c2c	6.4467983
42	0xc129c694	-10.610981
43	0x40b73fa4	5.7265186
44	0xc12a1ec9	-10.632516
45	0x40dba0d5	6.863383
46	0x40b326df	5.598495
47	0x40d4d803	6.6513686
48	0xc137a674	-11.478138
49	0x40ba3972	5.8195124
50	0xc1294917	-10.580344
51	0x408078ad	4.014731
52	0x40d0fd49	6.5309186
53	0xc13d3643	-11.8257475
54	0x40e86f80	7.263611
55	0x40c0e28d	6.027655
56	0x40c8f139	6.279446
57	0xc12c2c9e	-10.760893
58	0x40c32175	6.097834
59	0x40ca3796	6.3192854
60	0x4082de65	4.089648
61	0x40bddd6c	5.933279
62	0xc12f06a5	-10.939122
63	0x40ba938a	5.83051
64	0xc13b8169	-11.719094
65	0x40af2bf1	5.474114
66	0x40bc9f74	5.8944645
67	0x40ec215b	7.3790717
68	0x40ccd602	6.401124
69	0x40bb3493	5.8501678
70	0x40b9304d	5.787146
71	0x40b4d47c	5.650938
72	0x40b336b4	5.6004276
73	0x40c7e2b5	6.246424
74	0x40bd45df	5.914779
75	0x40b1f10d	5.560675
76	0x40cffe52	6.499795
77	0xc100b69a	-8.04458
78	0x40ba4fdc	5.8222485
79	0x40cf5f8d	6.480414
80	0x40b6b5e3	5.709703
81	0xc13fa7b8	-11.978447
82	0x40de97ae	6.9560156
83	0x40ba1734	5.8153324
84	0x40bf968e	5.9871283
85	0x40ff12bd	7.9710374
86	0x40e1fb1a	7.061902
87	0x40d66120	6.699356
88	0x40c7b977	6.2413898
89	0x40b63592	5.6940393
90	0xc1290ff3	-10.566394
91	0x40cc5357	6.3851733
92	0x410fb0ed	8.980695
93	0xc028f008	-2.6396503
94	0x40b60b09	5.688847
95	0x40aa403f	5.3203425
96	0x40bdbc00	5.929199
97	0x40cfad8c	6.489935
98	0x40d55508	6.66663
99	0x40ad771d	5.42079
100	0x40b7d2fa	5.744504
101	0x40bc72ce	5.8890142
102	0x40b80a13	5.75123
103	0xc136cbe2	-11.424776
104	0x40beef66	5.9667234
105	0x40d45f22	6.636613
106	0x40b557e2	5.666978
107	0x40cdf1ef	6.435783
108	0x40c50b25	6.1576104
109	0x40b9ea75	5.8098702
110	0x40c0770b	6.0145316
111	0xc12ba306	-10.727301
112	0x40bf01f0	5.9689865
113	0x40d3bbdd	6.6166825
114	0x4065061f	3.5784986
115	0x40d3d48c	6.6196957
116	0x40b6d6d6	5.713725
117	0x40d14d4f	6.540687
118	0xc12997e9	-10.599587
119	0x40a169b9	5.0441556
120	0x3e4f41cb	0.20239942
121	0x40bd7d35	5.921534
122	0x40c38194	6.1095676
123	0x40dca68b	6.89533
124	0x40b5a182	5.6759653
125	0x40b8925c	5.767866
126	0x40bfaefb	5.99011
127	0x40c16d87	6.04462

weight f4 [64, 128]
0	0x3e0a950f	0.13533424
1	0x3de09164	0.10965231
2	0x3dea15d2	0.11429943
3	0xbca7bb02	-0.020474914
4	0x3e95f787	0.2929041
5	0x3c939ab2	0.0180181
6	0x3d2ca5f3	0.04215045
7	0xbf155e2d	-0.58346826
8	0xbf3c9aca	-0.7367369
9	0xbccddbe7	-0.025129272
10	0x3cc7b03a	0.024376024
11	0x3d439448	0.047748834
12	0x3d4a36b8	0.04936859
13	0x3da05a48	0.0782972
14	0x3dde372e	0.108503684
15	0xbed82cca	-0.4222167
16	0x3e3cecdd	0.18449731
17	0x3d842b63	0.06453588
18	0xbf19e58b	-0.6011588
19	0xbf09c711	-0.53819376
20	0x3ceb3856	0.028713387
21	0x3deefd2a	0.11669381
22	0x3e9c2190	0.30494356
23	0x3e44dc29	0.1922461
24	0xbf185669	-0.5950685
25	0x3e613845	0.21994121
26	0x3dfe1da0	0.12407994
27	0xbeed159f	-0.46305558
28	0xbf25461d	-0.6456011
29	0x3e331a55	0.17490514
30	0xbf236a90	-0.63834476
31	0x3deda3a9	0.11603481
32	0xbf2038f8	-0.6258693
33	0x3def4ac1	0.1168418
34	0xbf25c05d	-0.6474665
35	0x3deb7f10	0.114988446
36	0x3e8d072a	0.27544528
37	0x3d4917cd	0.049094964
38	0x3daf8ed0	0.08572161
39	0xbbe42379	-0.0069622365
40	0x3d4c9850	0.049949944
41	0x3de17253	0.11008134
42	0xbf366486	-0.71247137
43	0x3db5a6e3	0.08869722
44	0xbf077957	-0.52919525
45	0xbc3baadd	-0.011454311
46	0x3d961493	0.07328143
47	0x3daef662	0.085430875
48	0xbf24b855	-0.6434377
49	0x3d4194b8	0.04726097
50	0xbf33e9e8	-0.7027879
51	0x3e1a6c25	0.15080316
52	0x3e8ba209	0.2727206
53	0xbf33598f	-0.7005853
54	0xba227205	-0.00061968
55	0x3d889227	0.06668501
56	0x3d9efd0c	0.077631086
57	0xbf45788d	-0.7713707
58	0x3d6fe1a4	0.058564797
59	0x3e153933	0.14572601
60	0x3e82cbd4	0.25546134
61	0x3d0e0623	0.03467382
62	0xbf20bacf	-0.6278505
63	0x3e067079	0.13128842
64	0xbf29d745	-0.663441
65	0xbaaafd97	-0.0013045546
66	0x3a936211	0.0011244436
67	0x3e192148	0.14954102
68	0x3e16f3be	0.14741418
69	0x3da4f8eb	0.0805529
70	0x3cdc68b5	0.026905397
71	0xbbec13f9	-0.0072045294
72	0x3cbd6174	0.023117758
73	0x3eb58f4f	0.35460898
74	0x3e1b9806	0.15194711
75	0x3db88ec1	0.09011603
76	0x3d96ddf4	0.07366553
77	0xbf1f0cc7	-0.6212887
78	0x3da05447	0.07828575
79	0x3dc43b42	0.09581615
80	0x3eb330bb	0.34998116
81	0xbf27e5d3	-0.6558506
82	0x3e3767f9	0.17910756
83	0x3d4bd6fa	0.049765565
84	0x3dc05948	0.09392029
85	0x3e9f13a4	0.31069672
86	0x3e9b599c	0.30341804
87	0x3deb5216	0.11490266
88	0x3df4632d	0.11932979
89	0xbb1ec32f	-0.0024225225
90	0xbf30cc51	-0.6906176
91	0x3db5e6da	0.08881922
92	0x3e2f5b17	0.17124592
93	0xbefef49f	-0.49796006
94	0x3b8f7da5	0.0043789917
95	0x3da5cb26	0.08095388
96	0x3dc54c0e	0.09633647
97	0x3e20893b	0.1567735
98	0x3d34b1de	0.04411494
99	0x3e6377b1	0.22213627
100	0x3d469c6f	0.04848903
101	0x3e951da7	0.29124185
102	0x3de1675e	0.11006044
103	0xbf20f4b6	-0.628734
104	0x3dc0ca0d	0.09413538
105	0x3da6fd84	0.08153823
106	0x3d7f13d2	0.06227476
107	0xbc34a549	-0.011025735
108	0x3bf5fa24	0.0075066257
109	0x3b836f2b	0.004011055
110	0x3dbc4e29	0.09194595
111	0xbf0753cd	-0.52862245
112	0x3e07a878	0.1324786
113	0x3cb62030	0.022232145
114	0x3e52cf9c	0.20587009
115	0x3f01ec8f	0.50751585
116	0x3d94dcf3	0.07268705
117	0x3d947f1d	0.072508074
118	0xbf200d4a	-0.6252028
119	0x3e64c719	0.22341575
120	0x3d102771	0.035193864
121	0x3ce07437	0.027399166
122	0x3db9459a	0.090464786
123	0x3e289b2d	0.16465445
124	0x3d1d7460	0.038441062
125	0x3e89ea95	0.26936784
126	0x3d8e6c49	0.069542475
127	0x3e07de80	0.13268471
128	0x3c9b17da	0.018932272
129	0x3d021c79	0.031765435
130	0xbd7dfb97	-0.062007513
131	0x3d31ba68	0.04339066
132	0x3e25e77f	0.1620159
133	0xbc1d608d	-0.009605539
134	0xbdb3bbcb	-0.08776053
135	0xbe72072d	-0.2363555
136	0xbe833c74	-0.2563206
137	0x3c78f899	0.015195989
138	0x3da6118d	0.08108816
139	0xbcce760a	-0.02520277
140	0x3d340fbe	0.043960325
141	0x3d8745a8	0.06605083
142	0x3cbefc28	0.023313597
143	0xbe38b72b	-0.18038623
144	0x3d22f737	0.039786544
145	0x3d919c54	0.07109895
146	0xbdcd0054	-0.10009828
147	0x3ccd309a	0.02504759
148	0x3c48f74d	0.012265992
149	0x3d27b33c	0.040942416
150	0x3e3297e6	0.17440757
151	0x3e45a271	0.19300248
152	0xbe7baf20	-0.24578524
153	0x3d676b40	0.056498766
154	0xbdafa9d0	-0.08577311
155	0xbdb319ed	-0.08745179
156	0xbe8e50eb	-0.2779611
157	0xbc97a105	-0.018509397
158	0xbe31cff8	-0.1736449
159	0x3db8a822	0.09016444
160	0xbd441c5a	-0.0478786
161	0x3db72080	0.08941746
162	0xbe616ee1	-0.22014953
163	0x3f0b55ad	0.54427606
164	0xbc873d11	-0.01650861
165	0x3d323b3b	0.043513518
166	0x3d05a153	0.032624554
167	0x3d7d7c7b	0.061886292
168	0xbd262828	-0.04056564
169	0xbb85e2a3	-0.004085855
170	0xbe6e3950	-0.2326405
171	0xbd789f16	-0.06069859
172	0xbe5ba94b	-0.21451299
173	0x3d03756a	0.032094397
174	0x3dc09e4c	0.09405193
175	0x3cd207d7	0.025638504
176	0xbe547b91	-0.20750262
177	0x3d76aa50	0.060221016
178	0xbdc0aba7	-0.0940774
179	0xbc07eed9	-0.008296692
180	0x3d92b13d	0.07162712
181	0xbe3a06ca	-0.18166652
182	0x3db64323	0.08899524
183	0xbd23e9ec	-0.040018007
184	0xbd7eb31c	-0.06218253
185	0xbe106956	-0.14102682
186	0x3cb3c21b	0.021943143
187	0xbce48ccb	-0.027899167
188	0x3daf8c04	0.08571628
189	0x3c77b857	0.015119634
190	0xbe453711	-0.19259287
191	0xbc930d7c	-0.017950766
192	0xbe6908cb	-0.2275726
193	0x3de2a122	0.1106589
194	0x3d0d5dec	0.0345134
195	0x3db99127	0.09060889
196	0x3d4bda43	0.049768697
197	0xbb0f9c78	-0.002191333
198	0x3dab96b9	0.083783574
199	0xbac7d24e	-0.0015245171
200	0x3d9724c2	0.07380058
201	0x3e099623	0.13436179
202	0xbd974d42	-0.07387783
203	0x3d472b77	0.048625436
204	0x3c158681	0.0091263065
205	0xbed8728c	-0.42274892
206	0x3d937774	0.07200518
207	0xbd90a5df	-0.070628874
208	0x3e27b9f7	0.16379534
209	0xbe3a9470	-0.18220687
210	0x3c311cbd	0.010810074
211	0xbd90dd24	-0.07073429
212	0x3d776433	0.06039829
213	0x3e2b79f6	0.16745743
214	0x3dff1975	0.124560274
215	0x3d8fba2e	0.07017933
216	0xbd518795	-0.05115469
217	0x3c2b914c	0.010471653
218	0xbdfa4839	-0.12220807
219	0x3cbcedeb	0.023062667
220	0x3dffbbc7	0.124869876
221	0xbdfab313	-0.12241187
222	0xbcda02a1	-0.026612582
223	0xbce98d4a	-0.028509755
224	0x3dab127a	0.083531335
225	0x3d365c70	0.04452175
226	0xbd53f340	-0.051745653
227	0x3d452a0e	0.04813581
228	0x3ceb23cf	0.028703598
229	0x3dd9a0bc	0.10626361
230	0xbd4c5e82	-0.049894817
231	0xbe285e8d	-0.16442318
232	0x3ba86870	0.005139403
233	0x3cbda7e5	0.023151347
234	0x3d2f449b	0.042790037
235	0x3d92cf3a	0.071684316
236	0x3daea626	0.08527784
237	0x3cc3f2df	0.02391952
238	0x3c8ff122	0.017571036
239	0xbe18eebc	-0.1493482
240	0xbd180699	-0.037115667
241	0x3d090346	0.033450387
242	0xbdcbf438	-0.099586904
243	0x3e059616	0.13045534
244	0xbd857dd8	-0.065181434
245	0xbcde4a3e	-0.02713501
246	0xbe803d58	-0.25046802
247	0x3db8d331	0.090246566
248	0x3d765c6a	0.060146727
249	0x3d115b96	0.035487734
250	0xbd895a07	-0.067066245
251	0x3de3b819	0.11119098
252	0x3d137995	0.03600462
253	0x3e714a19	0.23563422
254	0x3d3caa58	0.04606089
255	0x3ce93c65	0.028471181

bias f4 [64]
0	0x40f35709	7.6043744
1	0x409c0cbd	4.876555
2	0xc0b4ea03	-5.653566
3	0x40f29324	7.5804615
4	0xc0839ee5	-4.1131463
5	0xc009f18e	-2.1553683
6	0x4097b5a5	4.7409234
7	0xc0ccd7e9	-6.401356
8	0xbf536666	-0.8257812
9	0x406d8f0d	3.7118561
10	0xc0071fa4	-2.1113062
11	0xc0fd4453	-7.9145904
12	0xbfd499f8	-1.6609488
13	0x4063c8d7	3.5591333
14	0x4090b891	4.52253
15	0x3fcd3cd2	1.6034186
16	0x40aceaed	5.4036775
17	0x40ccb5da	6.3971987
18	0xc08a28cd	-4.3174806
19	0x40dbc55f	6.867843
20	0x40fe6024	7.949236
21	0x40f9138a	7.783635
22	0xc07adbeb	-3.9196727
23	0xc0ff85b9	-7.9850736
24	0x40c51294	6.158518
25	0x404c397f	3.1910093
26	0x3e5858de	0.2112765
27	0xc0ffcff5	-7.9941354
28	0x40f64f1a	7.697156
29	0xc08157b4	-4.041956
30	0xbfbee223	-1.4912761
31	0x40c20e69	6.064259
32	0xc060f613	-3.5150192
33	0x40e071fd	7.0139146
34	0x40d4bd3b	6.6480994
35	0x40dc7e7e	6.890441
36	0x40f1f55c	7.561201
37	0xc00bc728	-2.1840305
38	0x40fb23eb	7.8481345
39	0x40b9d6c4	5.8074665
40	0x40ccad37	6.3961444
41	0x3ea025eb	0.3127893
42	0x408cff01	4.4061284
43	0x40f23d8d	7.5700135
44	0xbf1ead66	-0.61983335
45	0x401d3d61	2.4568713
46	0x40f4b93e	7.6476126
47	0xc0dab5c1	-6.8346868
48	0x40d26829	6.575215
49	0x4090d1e1	4.52562
50	0x40f8c046	7.773471
51	0x40e3304f	7.099647
52	0xbd983406	-0.07431798
53	0x40b62ea4	5.6931934
54	0x3ed34388	0.4126246
55	0xc00a510e	-2.1611972
56	0x40f72677	7.7234454
57	0x40e26b1a	7.075574
58	0x40f57a9c	7.671217
59	0x40696e30	3.6473503
60	0x40c9be9b	6.3045173
61	0x3e287121	0.16449405
62	0x40f2452e	7.570945
63	0x40ec9096	7.3926497

weight f4 [4, 64]
0	0x3d5423a1	0.05179179
1	0x3cf99ecc	0.030471228
2	0xbe0679fa	-0.13132468
3	0x3d329daa	0.04360739
4	0x3d79d628	0.06099525
5	0xbda99db7	-0.08282035
6	0x3d62a0bd	0.055329073
7	0x3d827f0a	0.06371887
8	0x3d6804e5	0.056645293
9	0x3db757e0	0.08952308
10	0xbda3154f	-0.07963049
11	0xbdccbe81	-0.09997273
12	0xbc32e204	-0.010918144
13	0xbd5af95e	-0.05346047
14	0x3d2456e7	0.04012194
15	0x3dd4b85d	0.10386727
16	0x3df1ec33	0.118126296
17	0x3c66bd7a	0.014083261
18	0x3c821c94	0.015882768
19	0xbc2285f8	-0.009919636
20	0xbc219ba8	-0.0098637715
21	0x3bc5f20c	0.006040817
22	0xbda4e0f1	-0.08050717
23	0xbd89a053	-0.067200325
24	0x3cbdfd3c	0.02319204
25	0x3dcbe1c0	0.09955168
26	0x3d4638c1	0.04839397
27	0xbd20c4c0	-0.039250135
28	0x3e03a528	0.12855971
29	0xbbdf517c	-0.0068151336
30	0xbdc11877	-0.094284944
31	0xbde18b0b	-0.110128485
32	0xbda0f200	-0.07858658
33	0xbc0bcb5e	-0.008532373
34	0x3d92b21e	0.071628794
35	0x3e0b42b6	0.13599667
36	0x3e28b9cd	0.16477127
37	0xbd3affba	-0.045654036
38	0x3dec6cc4	0.11544183
39	0x3e0b5f37	0.1361054
40	0x3d3c6eed	0.046004225
41	0xbd4264e0	-0.047459483
42	0x3d2ddb30	0.04244536
43	0x3df0e16b	0.11761745
44	0xbcb3ffe6	-0.021972608
45	0x3e3bb41b	0.18330424
46	0x3e3411e0	0.17584944
47	0xbda73a96	-0.08165471
48	0x3e225fbe	0.15856835
49	0x3d31ebae	0.043437652
50	0xbba68d2b	-0.0050827465
51	0x3dfcacab	0.12337621
52	0x3d029b59	0.031886432
53	0x3e1075a2	0.14107373
54	0x3d2b3bf5	0.041805226
55	0x3b8aa543	0.0042311265
56	0x3e419f41	0.18908407
57	0xbc4ef434	-0.012631465
58	0x3db4e270	0.08832252
59	0x3dd8911a	0.10574551
60	0x3e18c40a	0.14918533
61	0x3ddfa6f1	0.109205134
62	0x3e188092	0.14892796
63	0x392a1c32	0.00016222967
64	0x3e373026	0.17889461
65	0x3dd41664	0.10355833
66	0xbd17904f	-0.037002858
67	0x3e29e70e	0.16592047
68	0x3d036d6c	0.032086775
69	0x3d0ce809	0.034400973
70	0x3da01859	0.07817144
71	0xbcf9cdfa	-0.030493725
72	0x3b7cf87c	0.0038600257
73	0x3d6d08d8	0.057869762
74	0xbda5e06e	-0.08099447
75	0xbe204b80	-0.15653801
76	0xbe157c71	-0.14598252
77	0x3d29f91d	0.04149734
78	0x3b061ae3	0.0020462803
79	0x3d90561b	0.07047673
80	0x3e19ce63	0.15020137
81	0x3e2b98fe	0.1675758
82	0x3d77d087	0.0605016
83	0x3e001877	0.12509333
84	0x3e2b83da	0.16749516
85	0x3c937891	0.018001826
86	0x3d5ef666	0.054434203
87	0xbe22a0de	-0.15881678
88	0xbc3c75b0	-0.011502668
89	0xbb4fa801	-0.0031685831
90	0x3dfd25ba	0.123607114
91	0xbba9f3eb	-0.005186548
92	0x3e108bf4	0.14115888
93	0x3c94df64	0.018172927
94	0xbdc2df0c	-0.09515199
95	0x3d0d989f	0.03456938
96	0x3d475af3	0.04867072
97	0x3d426ad1	0.04746515
98	0x3deb9439	0.115028806
99	0xbb87ae01	-0.004140616
100	0x3e5643f3	0.20924358
101	0xbd941818	-0.07231158
102	0x3e279805	0.16366585
103	0x3de640b6	0.112428114
104	0x399d618e	0.00030018057
105	0x3de4b51f	0.111673586
106	0x3dad8888	0.08473307
107	0x3d2a3779	0.04155681
108	0x3d2828fc	0.04105471
109	0x3e01b925	0.12668283
110	0x3d95b375	0.07309619
111	0xbbf5c893	-0.007500717
112	0x3e0c19cd	0.13681717
113	0x3e2b8fb7	0.16754042
114	0x3d17cb5b	0.03705917
115	0x3e3027c6	0.17202672
116	0x3d8bac31	0.06819952
117	0x3da39fee	0.079894885
118	0x3e3c5196	0.18390498
119	0x3df96167	0.12176781
120	0x3dbb78a0	0.09153867
121	0x3e1d5aeb	0.15366714
122	0x3e15999e	0.14609382
123	0x3dfcd9f0	0.12346256
124	0x3d74a8c8	0.059731275
125	0x3dbf5f85	0.09344391
126	0x3e46292c	0.19351643
127	0x3dcb86d1	0.099378236
128	0x3e0b8f30	0.1362884
129	0x3d24ac38	0.040203303
130	0xbdcc97b4	-0.099898726
131	0x3e2aabd2	0.16667107
132	0xbd873846	-0.0660253
133	0xbd1fe0d4	-0.039032772
134	0x3d886fc5	0.06661943
135	0xbdc4eac3	-0.0961509
136	0xbd13866d	-0.03601687
137	0x3d6fa085	0.058502693
138	0xbdb8b5c3	-0.09019043
139	0xbe73e090	-0.23816133
140	0xbe0aa602	-0.1353989
141	0x3d076070	0.033050954
142	0x3dd6f948	0.104967654
143	0x3d13cec1	0.036085848
144	0x3db9293e	0.090410694
145	0x3e2cca46	0.16874036
146	0xbd69b938	-0.057061404
147	0x3dd373b1	0.10324801
148	0x3e1ef074	0.15521413
149	0x3e057f9e	0.13036963
150	0xbd8312bf	-0.0640006
151	0xbe577ef2	-0.2104452
152	0x3d62d172	0.055375524
153	0x3dcca5b7	0.09992545
154	0x3d94c627	0.07264357
155	0xbe2161ba	-0.15759936
156	0x3e581af7	0.21104036
157	0xbd680f19	-0.056655023
158	0xbd6ae385	-0.057345886
159	0x3e1666bd	0.14687629
160	0xbd836ba2	-0.06417014
161	0x3e15eac4	0.14640337
162	0x3da42291	0.080144055
163	0x3dfe90aa	0.12429936
164	0x3e2827ef	0.16421483
165	0xbd393ec4	-0.045225874
166	0x3e6b3788	0.22970402
167	0x3d95038c	0.07276067
168	0x3d8815a7	0.06644755
169	0x3dfb2cad	0.122643806
170	0x3d29201b	0.041290384
171	0x3e36f7da	0.17867985
172	0xbd871ca2	-0.06597258
173	0x3d53c697	0.051703062
174	0x3e380892	0.1797202
175	0xbdea9db2	-0.11455859
176	0x3dc42860	0.095780134
177	0x3e18db29	0.14927353
178	0x3e13a305	0.14417656
179	0x3e1e1110	0.15436196
180	0x3d98d0bb	0.07461687
181	0x3dc8b5d4	0.09800306
182	0xbbd6d687	-0.0065563354
183	0x3df323ba	0.11872049
184	0x3e2f11cf	0.17096637
185	0x3e1d9da5	0.15392168
186	0x3e122630	0.1427238
187	0x3d6dd353	0.058062863
188	0x3e210642	0.15725043
189	0xbbaacc9e	-0.0052123806
190	0x3e6aa1fc	0.22913355
191	0x3e1add1e	0.15123412
192	0x3e35bf32	0.17748716
193	0x3d375ae5	0.04476442
194	0xbd8371de	-0.06418203
195	0x3e366e5e	0.17815539
196	0xbdd6ee6e	-0.104946956
197	0xbd588db1	-0.052869502
198	0x3d2d2f4b	0.04228143
199	0xbdeb8202	-0.114994064
200	0xbd3da5ed	-0.046300817
201	0x3d038073	0.03210492
202	0xbd9b0346	-0.07568984
203	0xbe7e02d1	-0.24805762
204	0xbe625ea2	-0.22106412
205	0x3e0c98aa	0.13730112
206	0x3e3af916	0.18259081
207	0x3d98af06	0.07455258
208	0x3d591c59	0.05300555
209	0x3de7a3b4	0.11310521
210	0xbda0e24b	-0.07855662
211	0x3e113494	0.14180213
212	0x3e59d7dd	0.21273752
213	0x3e3b73f5	0.18305953
214	0xbd84c267	-0.06482392
215	0xbe6c22ae	-0.23060104
216	0x3dd00f82	0.10159208
217	0x3d9bbecd	0.07604752
218	0xbda193df	-0.07889532
219	0xbe59ae47	-0.21257888
220	0x3e48aeb4	0.19597894
221	0xbd50e2f7	-0.0509977
222	0xbd5bf1a0	-0.05369723
223	0x3eade3e0	0.33962917
224	0xbd6f21ec	-0.05838196
225	0x3e1c6855	0.15274175
226	0x3dd3808e	0.10327254
227	0x3df833b0	0.121192336
228	0x3e6f4324	0.23365456
229	0xbd1293aa	-0.035785355
230	0x3e639eeb	0.22228591
231	0x3d35f048	0.044418603
232	0x3da0ea72	0.07857217
233	0xbd007e4e	-0.031370454
234	0x3d70d8b4	0.058800414
235	0x3e2d8038	0.16943443
236	0xbcfa23a8	-0.03053458
237	0x3be4c336	0.006981279
238	0x3e2f01d4	0.17090541
239	0xbe1b2f50	-0.15154767
240	0x3e1fd7f3	0.15609722
241	0x3e81b0d0	0.2533021
242	0x3e38bd04	0.18040854
243	0x3e065894	0.13119727
244	0x3e0463ac	0.12928647
245	0x3d466224	0.048433438
246	0xbe06baee	-0.13157246
247	0xbb9c56db	-0.004771096
248	0x3e593da2	0.21214917
249	0x3e095fc7	0.13415442
250	0x3e579aad	0.21055098
251	0x3c7df4bd	0.015500245
252	0x3dd42f13	0.10360541
253	0xbd9014e1	-0.07035232
254	0x3e523469	0.20527805
255	0x3e1fe33c	0.15614027

bias f4 [4]
0	0x40899026	4.2988462
1	0x40665d3a	3.59944
2	0x40b5071f	5.6571193
3	0x40d32cdd	6.5992265
